best_model.pt (torch, 281207 bytes, 7 tensors)

fc1.weight f4 [256, 45]
-0.07626206 0.035010215 -0.0762008 0.013509339 0.062269032 0.0035810056 0.041802656 -0.08239801
0.0117707895 -0.009249345 0.073704764 0.06573857 -0.113233 0.086008765 -0.09671753 -0.11931524
0.091388695 -0.012364603 -0.08850382 0.12088559 0.1287215 -0.14205112 0.06450089 0.0570625
-0.08312315 -0.02200566 0.09059711 -0.1598023 0.12229708 0.081472374 -0.09710391 -0.048938088
-0.069722556 -0.1256821 0.11636099 -0.12101234 0.009965528 0.06577702 0.017376242 -0.018567264
0.019468578 0.026289772 -0.12832151 0.012625828 -0.09977886 -0.032151442 -0.004196353 -0.006638974
-0.007097094 0.017315207 -0.0680552 -0.08452222 -0.038329937 -0.011366259 0.0183968 -0.14170805
0.15964755 -0.038968608 -0.08373654 0.07978639 0.092468426 -0.01358028 -0.018840667 -0.1662294
-0.13064982 -0.07477508 -0.04247136 -0.1238009 0.07899058 -0.12610646 0.057061505 0.119696274
-0.07420102 -0.09770355 0.03843151 0.09108109 -0.056394074 0.14331959 0.0064693764 -0.057187095
0.101075195 0.08734517 0.012309128 0.10174937 0.21487224 0.18028824 0.03058695 -0.03742355
0.06038938 -0.048968 0.0021111714 -0.07562882 -0.12519458 -0.049131252 -0.099898644 0.108019605
-0.1370886 -0.049542777 -0.00069195003 -0.021503447 -0.08418022 -0.100657105 0.05166376 -0.13261124
0.037318174 -0.10123378 0.0703057 0.043945372 -0.12902218 -0.15067884 -0.048206486 -0.09836242
-0.14037357 0.042759422 -0.03937368 -0.0307847 0.07135744 0.06902938 0.06616147 -0.10706939
-0.13364464 -0.060527567 0.09074003 -0.061455972 0.084007725 0.09392489 -0.00012306869 -0.0023906087
0.042118914 -0.12049213 0.08606849 -0.00151266 0.049532223 0.12183457 0.007830511 0.08232019
-0.0062364177 0.016221054 -0.11621036 -0.01749948 -0.0023873455 -0.005246811 -0.03292378 -0.019944659
0.15319201 0.104267225 0.10351484 0.090288594 -0.050372727 0.09453408 -0.0007610493 -0.10376552
-0.10376146 0.033933345 0.06719729 -0.18326211 -0.08419246 -0.16863877 -0.10099084 -0.017254228
-0.15570539 -0.14878389 -0.083460785 -0.1271614 -0.01146049 -0.024473395 -0.0073472257 0.0014065601
-0.124418184 -0.036132142 -0.10472388 -0.044864316 -0.16418697 -0.17923485 0.13734774 -0.03614529
-0.07797613 -0.022223141 -0.13024624 -0.10679739 0.029561656 0.047386162 0.05474137 0.039009403
0.05349288 0.04720788 -0.005938955 -0.069539376 0.0705214 -0.07228427 0.09967563 -0.042506933
0.046118718 0.1108098 -0.044756413 0.0666758 -0.048610248 0.027354533 -0.13975188 -0.014841486
0.0057706037 0.098469034 0.034041252 -0.07723861 0.113015816 -0.06667124 -0.1472942 0.058879495
0.12254009 0.10805207 -0.0056121834 0.020782216 -0.06331541 -0.09884685 -0.016882395 -0.0062356517
0.080552235 -0.07076235 0.116346054 -0.1357827 -0.020884773 0.035360955 -0.050025254 0.11648558
-0.0017378255 -0.015426497 0.10032561 -0.09795912 0.13340433 0.050225552 -0.034742247 -0.11449994
0.08617482 -0.078236 -0.0527628 -0.055039737 -0.08438341 -0.16440143 -0.10852539 -0.11075197
-0.115398996 0.031725075 -0.05618689 -0.0985984 -0.041332465 0.08039081 -0.05012011 -0.007986533
-0.0984201 -0.034812875 -0.049978327 0.05384064 -0.055278666 0.0016712692 0.09157345 -0.03290842
00000000: 482f 9cbd df66 0f3d 2a0f 9cbd 4656 5d3c
00000010: d00d 7f3d 4eaf 6a3b 4339 2b3d 4ac0 a8bd
00000020: 45da 403c 918a 17bc 86f2 963d f2a1 863d
00000030: b4e6 e7bd 5d25 b03d d713 c6bd 8c5b f4bd
00000040: ff29 bb3d e794 4abc 7e41 b5bd dd92 f73d
00000050: 92cf 033e d975 11be 0b19 843d 5eba 693d
00000060: 783c aabd 3745 b4bc fa8a b93d 37a3 23be
00000070: e476 fa3d fdda a63d 6ade c6bd 4e73 48bd
00000080: b3ca 8ebd cfb2 00be ac4e ee3d 51d5 f7bd
00000090: 7446 233c 1ab6 863d 9f58 8e3c 601a 98bc
000000a0: 917c 9f3c a65d d73c b766 03be 90dc 4e3c
000000b0: dc58 ccbd 3bb1 03bd 8f81 89bb c08b d9bb
000000c0: bd8e e8bb 9fd8 8d3c 8660 8bbd fc19 adbd
000000d0: daff 1cbd 8c39 3abc e3b4 963c ea1b 11be
000000e0: a67a 233e 8c9d 1fbd 107e abbd 0c67 a33d
000000f0: 1660 bd3d d37f 5ebc be57 9abc 0a38 2abe
00000100: 11c9 05be ad23 99bd 73f6 2dbd 548b fdbd
00000110: d0c5 a13d 0d22 01be 53b9 693d 5223 f53d
00000120: b4f6 97bd cc18 c8bd 5c6a 1d3d b988 ba3d
00000130: 79fd 66bd 5fc2 123e 10fd d33b 043d 6abd
00000140: 8300 cf3d 06e2 b23d 3aac 493c f961 d03d
00000150: 7807 5c3e 7b9d 383e 7c91 fa3c 7049 19bd
00000160: db5a 773d ab92 48bd 945b 0a3b 48e3 9abd
00000170: 0233 00be da3d 49bd a997 ccbd 6239 dd3d
00000180: f460 0cbe 5eed 4abd fb63 35ba ff27 b0bc
00000190: ae66 acbd 5025 cebd 619d 533d 3ecb 07be
000001a0: f1da 183d a853 cfbd 6ffc 8f3d 1000 343d
000001b0: 641e 04be 8e4b 1abe 2a74 45bd 3d72 c9bd
000001c0: 17be 0fbe 8124 2f3d 4c46 21bd 3230 fcbc
000001d0: d923 923d 475f 8d3d aa7f 873d 3247 dbbd
000001e0: 24da 08be c1eb 77bd e9d5 b93d 42b9 7bbd
000001f0: 3e0c ac3d b15b c03d 000c 01b9 c2ab 1cbb
00000200: e284 2c3d 94c4 f6bd ad44 b03d 7244 c6ba
00000210: 4de2 4a3d 6784 f93d 8b4b 003c 7d97 a83d
00000220: dd5a ccbb 04e2 843c b2ff edbd 125b 8fbc
00000230: 0375 1cbb 71ed abbb 16db 06bd fb62 a3bc
00000240: 5ede 1c3e 0e8a d53d 97ff d33d 3ae9 b83d
00000250: a253 4ebd 159b c13d 2781 47ba 0483 d4bd
00000260: e380 d4bd b1fd 0a3d bc9e 893d 10a9 3bbe
00000270: 196d acbd a4af 2cbe 49d4 cebd bd58 8dbc
00000280: 3c71 1fbe ce5a 18be 7ded aabd 9936 02be
00000290: c7c4 3bbc 6e7c c8bc ffc0 f0bb 535c b83a
000002a0: f6ce febd 4cff 13bd 7979 d6bd a5c3 37bd
000002b0: a120 28be 5789 37be e3a4 0c3e 150d 14bd
000002c0: f3b1 9fbd 4e0d b6bc 455f 05be 97b8 dabd
000002d0: 492b f23c fe17 423d 7d38 603d 53c8 1f3d
000002e0: 5a1b 5b3d 0d5d 413d 919b c2bb a96a 8ebd
000002f0: 866d 903d c609 94bd bd22 cc3d c01b 2ebd
00000300: fbe6 3c3d 40f0 e23d 8052 37bd 528d 883d
00000310: 8a1b 47bd 9d16 e03c 1e1b 0fbe b429 73bc
00000320: 5517 bd3b 22aa c93d d76e 0b3d 472f 9ebd
00000330: d674 e73d ee8a 88bd 4ad4 16be a02b 713d
00000340: 4cf6 fa3d 674a dd3d 68e6 b7bb 773f aa3c
00000350: 82ab 81bd 3870 cabd f34c 8abc 7054 ccbb
00000360: 92f8 a43d daeb 90bd d746 ee3d 9f0a 0bbe
00000370: 8b16 abbc a6d6 103d 48e7 4cbd fe8f ee3d
00000380: bfc7 e3ba 6bbf 7cbc 8377 cd3d cb9e c8bd
00000390: 259b 083e 4fb9 4d3d e34d 0ebd f27e eabd
000003a0: 6d7c b03d 323a a0bd ce1d 58bd 5971 61bd
000003b0: 36d1 acbd d958 28be 8f42 debd eed1 e2bd
000003c0: 4f56 ecbd 27f2 013d 3924 66bd f5ed c9bd
000003d0: 3b4c 29bd f0a3 a43d bf4a 4dbd f3d9 02bc
000003e0: 7a90 c9bd f297 0ebd 13b6 4cbd 0188 5c3d
000003f0: e26b 62bd 7d0e db3a dc8a bb3d fbca 06bd

fc1.bias f4 [256]
-0.02336518 0.1390373 -0.12251684 -0.006730477 0.09069397 -0.13937673 -0.17951225 0.088204384
0.06018947 -0.22834554 0.12305231 -0.014840439 -0.011537923 -0.122095 -0.061921395 0.055371102
0.15565297 -0.14067698 0.06891211 0.122456595 -0.08501699 -0.13906012 -0.033932317 0.12755392
-0.07882563 0.011767465 0.04011519 0.023224982 0.036238197 0.06505342 0.06333437 0.06550064
-0.07891732 0.09821374 -0.05867834 0.06669163 -0.084430546 -0.03664716 0.044137795 -0.136352
-0.17619826 0.034231666 -0.015111141 -0.19501102 -0.066335365 0.14058776 0.15506412 -0.13462982
0.12066065 0.13468212 0.08990435 0.00629741 -0.098706774 -0.117361605 0.041981254 -0.15480569
0.08705466 -0.06904405 0.0660557 0.040378474 0.03580626 -0.05024873 -0.13005206 -0.16100082
-0.11717048 0.11640276 -0.13886492 0.07279574 -0.16676779 0.012754736 -0.018698882 0.049713016
-0.17573437 0.007644601 -0.15892942 0.07082072 0.083702005 -0.11908999 -0.16218615 0.04446364
0.031143652 -0.05150623 -0.12308239 -0.1906748 -0.13225697 0.15469304 0.014848337 -0.08208651
0.012035298 -0.14608912 -0.10994363 0.13139294 0.04872781 0.06144256 0.09004099 0.15530987
0.017071133 0.13491349 0.01821744 0.058231127 0.08433858 0.09238552 -0.0899143 -0.05304521
0.12522908 -0.13242704 0.07500465 -0.048512682 0.05169993 -0.042346377 0.080016725 0.07122101
0.006334616 0.11476013 -0.19622253 0.12959678 0.08075477 -0.016522745 -0.171177 0.04827815
0.113023795 -0.101308815 0.084796846 0.15090778 -0.07713861 0.112148434 -0.14474995 0.020991176
0.04973219 -0.13905066 -0.124840505 0.11597934 -0.06589019 0.103995025 -0.088933006 -0.078221105
0.0051261624 0.11927007 0.080061875 -0.11150492 -0.004823054 0.006864844 0.048346944 -0.19080715
-0.1143564 -0.103206955 -0.027684297 -0.09990685 0.009048926 -0.06293353 -0.062923625 0.13776396
0.1604747 -0.087367095 0.01944519 0.08742393 -0.08521012 0.051491622 -0.14458697 -0.1719315
0.17573962 0.059902728 0.019975228 0.02784399 0.04347607 0.0963291 0.1441054 0.035332613
0.07472061 -0.06516623 -0.087881655 -0.13357046 0.042692706 0.12086757 -0.05832773 -0.03291402
-0.07310994 0.0841733 -0.0909676 0.10213818 -0.051720735 -0.017273158 -0.13795646 -0.15061858
0.18484107 -0.10975631 -0.06665719 0.0547826 -0.095688194 -0.004677811 0.05518862 0.12991953
-0.150127 -0.068305686 -0.21950236 -0.08344605 0.0006848269 0.10167297 0.060462654 0.082556315
0.10006921 0.16823308 -0.025798917 -0.005969467 0.12923336 0.100568175 -0.023327632 0.019578848
-0.041892294 -0.11830502 0.073697805 0.10171129 0.07294547 -0.117367856 0.07630348 -0.024416579
0.02580029 0.053214997 0.16718152 0.14546631 -0.031375863 -0.15817615 0.124113806 -0.024867974
-0.006375822 0.120862186 0.10239651 0.0047327545 -0.06662696 0.11598009 0.09647741 0.097360864
-0.18536077 -0.05034854 -0.13145556 -0.11597704 -0.08642165 -0.057089083 0.12609456 0.05409921
0.07228952 0.11711337 -0.15831442 0.011149647 0.12637226 0.0057965135 0.15194222 -0.10710504
-0.003146064 -0.025270827 0.019617088 0.08826516 0.056934748 -0.066625774 -0.061523955 0.0052053332
00000000: 5568 bfbc cb5f 0e3e 1cea fabd 558b dcbb
00000010: c3bd b93d c6b8 0ebe 0fd2 37be 80a4 b43d
00000020: 3c89 763d 6ad3 69be d902 fc3d 5025 73bc
00000030: 8e09 3dbc f20c fabd 4aa1 7dbd cfcc 623d
00000040: 7e63 1f3e a00d 10be cb21 8d3d 86ca fa3d
00000050: 631d aebd c765 0ebe 9dfc 0abd 7f9d 023e
00000060: 556f a1bd 53cc 403c d34f 243d 5142 be3c
00000070: 816e 143d ba3a 853d 73b5 813d 3325 863d
00000080: 679f a1bd 4924 c93d b358 70bd 9f95 883d
00000090: ece9 acbd 551b 16bd d5c9 343d dc9f 0bbe
000000a0: 516d 34be 8136 0c3d b894 77bc f8b0 47be
000000b0: d6da 87bd 3df6 0f3e 21c9 1e3e 66dc 09be
000000c0: ee1c f73d 1cea 093e c61f b83d 815a ce3b
000000d0: c726 cabd 485b f0bd 89f4 2b3d 6285 1ebe
000000e0: b749 b23d f866 8dbd 3648 873d e663 253d
000000f0: 96a9 123d 9dd1 4dbd 5e2c 05be 66dd 24be
00000100: 14f7 efbd 9264 ee3d 9b32 0ebe ef15 953d
00000110: 2dc5 2abe 3df9 503c 662e 99bc e09f 4b3d
00000120: b6f3 33be 907f fa3b 65be 22be 740a 913d
00000130: f56b ab3d 74e5 f3bd 2014 26be 811f 363d
00000140: f920 ff3c 32f8 52bd 9f12 fcbd 4140 43be
00000150: 5f6e 07be da67 1e3e 7046 733c f91c a8bd
00000160: b32f 453c 6398 15be 202a e1bd df8b 063e
00000170: d096 473d 32ab 7b3d 6967 b83d 8d09 1f3e
00000180: c3d8 8b3c c326 0a3e be3c 953c c383 6e3d
00000190: b5b9 ac3d 9f34 bd3d fd24 b8bd ef45 59bd
000001a0: 0d3c 003e f49a 07be 0a9c 993d 3cb5 46bd
000001b0: 4ec3 533d 6573 2dbd cfdf a33d 52dc 913d
000001c0: 9c92 cf3b 5c07 eb3d 8fee 48be 05b5 043e
000001d0: c262 a53d b55a 87bc 0649 2fbe 4fbf 453d
000001e0: 0579 e73d ff7a cfbd f8a9 ad3d 9287 1a3e
000001f0: d9fa 9dbd 14ae e53d 5539 14be b0f5 ab3c
00000200: fbb3 4b3d 4c63 0ebe 61ac ffbd 9486 ed3d
00000210: 70f1 86bd 58fb d43d 8222 b6bd 6332 a0bd
00000220: 5ef9 a73b de43 f43d 7bf7 a33d b15c e4bd
00000230: b60a 9ebb 7cf2 e03b 7207 463d f362 43be
00000240: b033 eabd 2b5e d3bd 2eca e2bc f69b ccbd
00000250: f241 143c 4be3 80bd 1ade 80bd ff11 0d3e
00000260: 7b53 243e 85ed b2bd 854b 9f3c 510b b33d
00000270: a582 aebd e1e8 523d 9b0e 14be d00e 30be
00000280: 16f5 333e 905c 753d 17a3 a33c 1419 e43c
00000290: f713 323d 3148 c53d 5e90 133e eeb8 103d
000002a0: 1f07 993d df75 85bd 4cfb b3bd b2c6 08be
000002b0: 8cde 2e3d 6b89 f73d 0fe9 6ebd dad0 06bd
000002c0: aaba 95bd 0d63 ac3d 394d babd d22d d13d
000002d0: 1fd9 53bd 7080 8dbc 7544 0dbe c23b 1abe
000002e0: fa46 3d3e ebc7 e0bd 9183 88bd b863 603d
000002f0: 2cf8 c3bd 5348 99bb 760d 623d a009 053e
00000300: e4ba 19be dae3 8bbd 3ac5 60be c3e5 aabd
00000310: f585 333a eb39 d03d b0a7 773d 4913 a93d
00000320: 16f1 cc3d 4b45 2c3e 4058 d3bc 859b c3bb
00000330: c055 043e b0f6 cd3d 9719 bfbc d263 a03c
00000340: 4197 2bbd e749 f2bd e0ee 963d 024e d03d
00000350: 6f64 953d 8f5e f0bd 0045 9c3d 4705 c8bc
00000360: 215b d33c f8f7 593d a231 2b3e 1ff5 143e
00000370: fa83 00bd eef8 21be 612f fe3d ecb7 cbbc
00000380: 45ec d0bb 9886 f73d 43b5 d13d 3915 9b3b
00000390: b773 88bd f886 ed3d f395 c53d 2265 c73d
000003a0: 37cf 3dbe 453a 4ebd 499c 06be 5f85 edbd
000003b0: d6fd b0bd 3ed6 69bd ef1e 013e 2297 5d3d
000003c0: 870c 943d 22d9 ef3d 2d1d 22be 02ad 363c
000003d0: bb67 013e aef0 bd3b be96 1b3e e359 dbbd
000003e0: 322e 4ebb c404 cfbc 04b4 a03c 5dc4 b43d
000003f0: 6934 693d 1873 88bd 8b00 7cbd 8091 aa3b

fc2.weight f4 [128, 256]
0.038986016 0.017352026 0.04060694 0.041576836 0.04740371 -0.06170074 -0.040058594 -0.06779295
-0.041802697 0.0092679 -0.031882014 -0.023900485 -0.034976754 -0.05440592 0.032365397 -0.041501164
0.04835196 -0.039289124 0.031092277 0.033673704 -0.010010146 -0.0070149642 -0.055237114 -0.026930146
-0.018644672 0.049815346 -0.03888044 -0.027200306 -0.044448927 0.009579231 0.0010278531 0.04112686
0.03539846 -0.06339415 -0.020609433 0.013635936 -0.0342581 -0.07131971 -0.0024989513 -0.029062966
-0.06817588 -0.0003078614 -0.060859814 0.04132095 -0.020963505 -0.06326427 0.0054225125 0.017996969
0.04346863 0.026426224 -0.023266226 -0.047861014 0.021859203 -0.0012147588 -0.048866753 0.0372167
-0.021349825 -0.035114963 0.009801283 -0.021945974 0.03701669 0.040460646 -0.06576673 -0.06454176
-0.04873882 -0.06296458 -0.07045805 0.01678758 -0.052791387 -0.048423458 -0.03294695 0.04392512
-0.026194807 -0.031142212 -0.05673469 -0.044748392 -0.05204216 -0.029250912 0.039270874 -0.009928891
-0.04496959 -0.06658405 0.050765432 -0.042855013 -0.012889633 -0.034120243 0.008254868 0.0272189
-0.060841057 -0.009447746 -0.06676223 0.024969263 0.033915788 -0.0651351 0.0012818143 0.024445368
-0.0515051 0.016766405 0.04145594 0.014396989 0.0480217 0.033136845 -0.048770238 -0.03628308
-0.05962753 0.0032865594 -0.014579967 -0.04117544 -0.06623003 -0.059710372 0.02210206 -0.070171624
-0.04039244 -0.05465804 -0.031044276 -0.012629998 -0.028091745 -0.060592987 0.017586311 0.013794691
-0.03767344 0.02266663 0.04690591 -0.024252756 -0.04225807 -0.069720894 0.00031312148 0.049901977
-0.061171222 0.019776851 -0.04420107 -0.055264212 0.028253676 -0.022382447 -0.027899234 0.051721197
-0.020619385 -0.024819948 0.0038578229 -0.06722329 -0.066008404 -0.06414693 -0.044979345 0.021628363
-0.021424731 -0.0364965 0.021221053 0.01857002 -0.0076758466 -0.04013463 -0.021885779 0.020942682
-0.027635954 0.043374386 -0.016953278 -0.041410096 -0.04044828 0.04594219 -0.0450536 0.00515235
0.015078407 0.038094267 0.009096545 0.04991002 -0.017367704 0.027285097 -0.014364348 -0.048863392
-0.055032227 0.021712033 -0.03221968 0.018703893 0.017133744 -0.023823215 -0.0053471257 0.04223054
-0.005213394 -0.05185692 -0.019575156 0.013905414 -0.023437534 -0.03874848 -0.011393876 0.049969006
0.033229563 0.02421753 0.013526646 -0.048277013 -0.047741786 -0.03514056 0.030897003 -0.030137306
0.03622207 -0.0046326625 -0.030543633 0.010899001 0.04991905 0.0066429875 0.01718114 0.047917735
0.012717607 0.0048351786 0.013887886 0.039954484 -0.010595782 0.018085789 0.0058359667 0.012070017
-0.02966609 -0.049476076 0.02805191 -0.0028608595 0.026873104 -0.018754393 -0.045617897 -0.027582584
0.040268842 0.009691226 -0.04643777 -0.0070840865 0.04229045 -0.040755235 0.019058358 -0.044372648
0.031634882 -0.0021339327 0.026211414 0.03532786 0.0463761 -0.028721161 0.04026727 -0.0025174236
-0.044765215 0.012695595 -0.060273785 0.03890952 0.03855701 -0.020344386 0.01090431 0.0034418833
0.04703923 -0.070732385 -0.03400841 -0.04758935 0.0010730271 -0.060753547 -0.016906414 -0.04202572
-0.05791818 -0.012902587 0.032627236 -0.05303778 0.01435429 -0.023683656 -0.004275384 0.050449263
00000000: cdaf 1f3d d625 8e3c 7653 263d 794c 2a3d
00000010: 652a 423d eab9 7cbd 7b14 24bd 08d7 8abd
00000020: 4e39 2bbd 64d8 173c b796 02bd f3ca c3bc
00000030: c943 0fbd bed8 5ebd 9491 043d 20fd 29bd
00000040: b40c 463d a2ed 20bd 3bb5 fe3c 70ed 093d
00000050: 9801 24bc c9dd e5bb 5040 62bd 9c9c dcbc
00000060: b6bc 98bc 2d0b 4c3d 1941 1fbd 2dd3 debc
00000070: 1410 36bd 35f2 1c3c 07b9 863a a374 283d
00000080: fafd 103d cbd4 81bd 1dd5 a8bc 4369 5f3c
00000090: 3952 0cbd 1110 92bd 72c5 23bb 7515 eebc
000000a0: cc9f 8bbd 7568 a1b9 2448 79bd 2840 293d
000000b0: a8bb abbc b390 81bd 55af b13b 616e 933c
000000c0: 2a0c 323d cf7b d83c d098 bebc e909 44bd
000000d0: 1212 b33c 8b38 9fba 8128 48bd 8a70 183d
000000e0: d4e5 aebc b5d4 0fbd 8f95 203c 0bc8 b3bc
000000f0: d09e 173d 10ba 253d b5b0 86bd 782e 84bd
00000100: 5ba2 47bd 93f3 80bd 4f4c 90bd 1b86 893c
00000110: c83b 58bd ad57 46bd 62f3 06bd d4ea 333d
00000120: 7e96 d6bc f41d ffbc a262 68bd 174a 37bd
00000130: 292a 55bd 9c9f efbc 7fda 203d caac 22bc
00000140: 0832 38bd 385d 88bd 6aef 4f3d bd88 2fbd
00000150: 0a2f 53bc abc1 0bbd 6d3f 073c 2cfa de3c
00000160: 7934 79bd b8ca 1abc a3ba 88bd 578c cc3c
00000170: 48eb 0a3d 8d65 85bd 8d02 a83a a741 c83c
00000180: 03f7 52bd b359 893c b4cd 293d 59e1 6b3c
00000190: 67b2 443d 80ba 073d 4dc3 47bd 919d 14bd
000001a0: ff3b 74bd 5163 573b d0e0 6ebc 94a7 28bd
000001b0: 9ca3 87bd dd92 74bd 610f b53c 24b6 8fbd
000001c0: 8b72 25bd 1ce1 5fbd 9150 febc 0dee 4ebc
000001d0: a920 e6bc 5a30 78bd 2b11 903c 2103 623c
000001e0: 774f 1abd 5eaf b93c 6920 403d b7ad c6bc
000001f0: cc16 2dbd d4c9 8ebd 742a a439 0466 4c3d
00000200: ad8e 7abd 1003 a23c 2e0c 35bd ba5c 62bd
00000210: 4174 e73c 655b b7bc ef8c e4bc 9bd9 533d
00000220: fce9 a8bc 3453 cbbc 87d3 7c3b 5dac 89bd
00000230: 6a2f 87bd 775f 83bd 433c 38bd f72d b13c
00000240: eb82 afbc 5b7d 15bd c6d7 ad3c 2820 983c
00000250: ab85 fbbb 3664 24bd ce49 b3bc fd8f ab3c
00000260: cc64 e2bc 57a9 313d 9ae1 8abc a29d 29bd
00000270: 18ad 25bd e12d 3c3d 208a 38bd 0bd5 a83b
00000280: 6c0b 773c bc08 1c3d ad09 153c 736e 4c3d
00000290: b746 8ebc ff84 df3c 7158 6bbc fb24 48bd
000002a0: 7969 61bd 6fdd b13c c8f8 03bd e838 993c
000002b0: 115c 8c3c e728 c3bc f136 afbb eef9 2c3d
000002c0: 1ed5 aabb ec67 54bd 145c a0bc 89d3 633c
000002d0: 1200 c0bc bab6 1ebd 61ad 3abc 4dac 4c3d
000002e0: b91b 083d d763 c63c de9e 5d3c 1ebe 45bd
000002f0: e48c 43bd 8cef 0fbd b61b fd3c 83e2 f6bc
00000300: 985d 143d 97cd 97bb a436 fabc b991 323c
00000310: eb77 4c3d 6bad d93b 76bf 8c3c 6345 443d
00000320: 835d 503c 6b70 9e3b 048a 633c 50a7 233d
00000330: ee99 2dbc a628 943c a33b bf3b 52c1 453c
00000340: 4d06 f3bc 6da7 4abd 1fcd e53c 427d 3bbb
00000350: fc24 dc3c d0a2 99bc d5d9 3abd dff4 e1bc
00000360: f1f0 243d f3c7 1e3c 8835 3ebd a021 e8bb
00000370: c038 2d3d f6ee 26bd 4620 9c3c 18c0 35bd
00000380: 9493 013d 73d9 0bbb 52b9 d63c f2b3 103d
00000390: def4 3d3d a448 ebbc 4bef 243d 5cfb 24bb
000003a0: bb5b 37bd 2f01 503c a5e1 76bd 975f 1f3d
000003b0: f5ed 1d3d 45a9 a6bc fea7 323c 3891 613b
000003c0: 35ac 403d 24dc 90bd 674c 0bbd 0ded 42bd
000003d0: d1a4 8c3a b6d8 78bd 527f 8abc 2923 2cbd
000003e0: 9d3b 6dbd 5f65 53bc 23a4 053d 253e 59bd
000003f0: 422e 6b3c 3a04 c2bc 8518 8cbb e3a3 4e3d

fc2.bias f4 [128]
-0.06950026 0.035055943 -0.02837355 0.012774243 0.02873279 -0.003163587 0.032422673 0.05880906
0.05334125 0.038776 -0.015592684 0.058253422 -0.020584192 0.06154551 -0.02581495 0.042912755
-0.041640505 0.06440895 0.026201855 0.0071195452 -0.06693386 -0.00046537537 -0.0139645375 -0.044294752
0.0047655106 0.11038094 -0.03187229 0.022044033 -0.046798512 0.10453507 -0.0036781912 -0.003507455
-0.009694624 0.05609456 0.042557035 0.014812927 0.060070105 -0.039425913 -0.024786497 0.08902297
-0.006921085 0.01679663 0.08914691 0.038652495 0.018976817 -0.06194255 -0.04218893 -0.001191566
-0.01850852 0.0016121429 -0.0011100293 -0.004124773 0.08476102 0.030428845 0.0930261 0.045597985
-0.00953041 -0.15557759 0.005433972 -0.11223464 0.015730606 0.08469995 0.10540849 0.09679124
0.07666675 0.074376 0.100292616 0.023686074 0.017681342 0.03588878 -0.030555308 0.113850474
0.0067199715 0.032340325 -0.014343295 0.030068645 -0.047557164 0.009303681 0.110435866 -0.022558844
-0.0053870417 -0.05070804 0.012776446 0.035491236 -0.029344164 0.08624482 -0.017516173 0.03641233
-0.057370376 0.10230163 0.018910026 -0.009460492 -0.049889844 0.035628464 0.03903257 -0.0006198796
0.02870283 0.090045206 -0.032539163 0.07986956 -0.060522527 -0.041848898 0.12081866 -0.042899527
0.0007796047 0.059851374 -0.023611363 -0.04721795 -0.029637454 -0.024537109 -0.03791432 0.017810166
0.06948982 -0.01756499 -0.072258204 0.08559631 0.046944287 -0.06933688 -0.040674888 0.0314323
0.025977753 0.03924489 -0.056550987 0.096183956 -0.03535562 -0.026321214 -0.026451763 -0.044216376
00000000: 2756 8ebd d296 0f3d a66f e8bc 0f4b 513c
00000010: 0761 eb3c 2f54 4fbb a3cd 043d c5e1 703d
00000020: 5b7c 5a3d 95d3 1e3d 7578 7fbc 249b 6e3d
00000030: 2ea0 a8bc 2517 7c3d e079 d3bc 49c5 2f3d
00000040: 3c8f 2abd d7e8 833d 46a5 d63c 134b e93b
00000050: 9f14 89bd a0fd f3b9 84cb 64bc 6a6e 35bd
00000060: 0028 9c3b 670f e23d 858c 02bd b095 b43c
00000070: ccaf 3fbd 7c16 d63d cf0d 71bb 55dd 65bb
00000080: 33d6 1ebc 69c3 653d 4950 2e3d ebb1 723c
00000090: 120c 763d 117d 21bd 0d0d cbbc ad51 b63d
000000a0: 45ca e2bb 1699 893c a892 b63d 1452 1e3d
000000b0: 4575 9b3c 79b7 7dbd 4dce 2cbd 522e 9cba
000000c0: 2e9f 97bc 8a4e d33a 677e 91ba 1b29 87bb
000000d0: 3097 ad3d ea45 f93c 7884 be3d f4c4 3a3d
000000e0: 7025 1cbc bb4f 1fbe 760f b23b 46db e5bd
000000f0: 79dd 803c 2b77 ad3d 68e0 d73d 7c3a c63d
00000100: 7503 9d3d 7252 983d 3766 cd3d 4c09 c23c
00000110: 76d8 903c 1d00 133d 204f fabc 702a e93d
00000120: 3533 dc3b 4a77 043d 2400 6bbc 8552 f63c
00000130: 4dcb 42bd 776e 183c 332c e23d 53cd b8bc
00000140: c885 b0bb 3cb3 4fbd 4c54 513c 425f 113d
00000150: 2c63 f0bc 20a1 b03d 147e 8fbc 1825 153d
00000160: 33fd 6abd 8483 d13d 33e9 9a3c 2e00 1bbc
00000170: 4b59 4cbd 27ef 113d 9ee0 1f3d 6a7f 22ba
00000180: 3322 eb3c 9f69 b83d c947 05bd a792 a33d
00000190: 78e6 77bd c069 2bbd c66f f73d 6ab7 2fbd
000001a0: 635e 4c3a b726 753d 9e6c c1bc 9c67 41bd
000001b0: 3fca f2bc 0c02 c9bc 0c4c 1bbd a0e6 913c
000001c0: ae50 8e3d 74e4 8fbc 1cfc 93bd 1e4d af3d
000001d0: a748 403d 7f00 8ebd b69a 26bd 28bf 003d
000001e0: 4ccf d43c 40bf 203d 02a2 67bd 18fc c43d
000001f0: 0ed1 10bd 969f d7bc 5eb1 d8bc 3b1c 35bd

fc3.weight f4 [64, 384]
-0.0005331743 0.058804374 0.00017535982 0.054333407 0.030528074 0.060772844 0.021246932 0.018657666
-0.026147904 -0.02620671 0.053059727 0.06767767 -0.032980192 -0.045035448 0.0143538015 -0.036331173
-0.050339837 0.017498082 0.012074507 0.028795794 0.029062822 -0.013699461 -0.010900468 0.06702443
0.035919074 0.064331494 -0.003747903 0.021371484 0.02295033 0.032875787 -0.05062424 0.027520709
0.055370767 0.03605435 -0.0018956739 0.05383265 0.048103075 0.03170502 -0.024201445 0.063336775
-0.022912772 0.045339204 -0.026684863 0.04130775 -0.034468222 -0.04892207 0.009418137 0.051836308
-0.03338031 -0.03044195 0.046388 0.037280694 0.04394144 0.050387796 -0.021548174 0.048856847
0.03675587 -0.052306667 0.02097968 -0.060739163 -0.025343454 0.07028493 0.00034945525 -0.01279557
0.0030262873 0.026803039 0.043611083 -0.036688015 -0.0329156 0.04255245 -0.033925086 0.02675412
-0.009611498 0.046963986 0.058312953 -0.032605678 0.04310646 -0.027399056 0.03718495 0.04295251
0.014828651 -0.012558567 0.009307039 -0.032837976 -0.03199744 -0.02887201 -0.029510286 0.03577917
0.004325607 0.052997172 -0.015811335 0.038107477 0.025053103 0.014245 0.00044716257 -0.009187194
0.033604052 0.01580005 0.0186745 -0.023420261 0.021091592 0.04508756 0.046883974 -0.026124181
-0.028233586 0.05609837 -0.012760083 -0.023332587 -0.025907071 -0.038991425 0.012586448 0.028269228
-0.022054046 -0.0027316594 -0.046399444 0.005784851 -0.01906057 -0.032231282 0.021400867 -0.022929687
0.045725938 -0.019976925 0.02398145 -0.041793585 0.021472888 0.035875782 0.020691548 0.00034918895
-0.015212225 0.0017818434 -0.023644032 0.043350443 -0.02514944 -0.037930477 -0.0437923 0.048125993
-0.021772563 -0.03900485 0.0465012 0.010762328 0.053593144 -0.01725728 -0.030841524 0.045278728
0.0072376844 -0.04653127 0.04024911 0.015786959 -0.040071324 -0.023566939 -0.01940852 0.037923463
0.03860955 -0.02269924 -0.0071208877 0.020359717 -0.023991728 -2.9071081e-05 -0.030748917 -0.026273303
0.020568144 0.017313555 -0.02718077 0.034243174 -0.0026311476 0.011695804 -0.016257012 -0.0014387664
-0.03220521 0.003500679 0.023482507 0.03572731 -0.035337903 -0.007285004 -0.012291582 -0.006962744
-0.013806862 0.0029957232 -0.03686128 0.06726107 0.028231159 -0.036126506 -0.036553457 0.0144740455
0.00955232 -0.025726104 0.014987914 0.0336237 0.049112726 -0.021518016 -0.035932004 -0.027416559
0.013253134 0.0024676435 -0.029313697 -0.023959039 -0.03582064 0.03615637 0.015159903 0.048639327
-0.027456328 0.005134638 0.039722104 -0.018630208 -0.0012496255 -0.021192698 0.04058005 -0.0049874424
0.004229683 -4.6963112e-05 -0.04281146 0.00635911 -0.018492019 0.008608971 -0.037116393 -0.0060108122
-0.010788966 0.06191851 -0.010845085 -0.020578306 0.02186254 0.013753409 0.023072843 0.053403817
0.009199186 -0.004279134 0.0037829122 -0.021078402 -0.02613588 0.026596788 -0.02429594 -0.021278108
0.023280827 -0.01919659 -0.002729522 0.028219592 0.020120205 0.05610613 -0.022698516 -0.017621601
0.052128755 0.014502785 0.01209019 0.006071948 -0.0058688954 0.02052481 0.035069056 0.047921065
0.005482718 -0.029161135 -0.012620034 -0.0032868388 0.03319249 0.025780026 -0.050739963 0.053950608
00000000: b9c4 0bba dbdc 703d cbe0 3739 b58c 5e3d
00000010: 0316 fa3c f2ec 783d 0c0e ae3c f6d7 983c
00000020: 2134 d6bc 74af d6bc 2855 593d 979a 8a3d
00000030: 3d16 07bd 1777 38bd 352c 6b3c ffcf 14bd
00000040: 2531 4ebd 2358 8f3c 27d4 453c 28e5 eb3c
00000050: 2815 ee3c b473 60bc e097 32bc 1b44 893d
00000060: e11f 133d 3bc0 833d 619f 75bb 4013 af3c
00000070: 5502 bc3c c3a8 063d 5d5b 4fbd 1c73 e13c
00000080: 75cc 623d baad 133d 4378 f8ba a07f 5c3d
00000090: bb07 453d 20dd 013d 1c42 c6bc b6b6 813d
000000a0: 91b3 bbbc 9ab5 393d 379a dabc 5132 293d
000000b0: 8d2e 0dbd 8262 48bd 884e 1a3c 4f52 543d
000000c0: cbb9 08bd 6561 f9bc 5801 3e3d a4b3 183d
000000d0: f0fb 333d 6f63 4e3d cc85 b0bc 1e1e 483d
000000e0: 538d 163d 843f 56bd 94dd ab3c a1c9 78bd
000000f0: 139d cfbc 8cf1 8f3d 1737 b739 83a4 51bc
00000100: ad54 463b 0c92 db3c 89a1 323d 2c46 16bd
00000110: 82d2 06bd 7a4b 2e3d 08f5 0abd 752b db3c
00000120: 8b79 1dbc 4f5d 403d 90d9 6e3d 888d 05bd
00000130: 6690 303d fc73 e0bc 3f4f 183d f9ee 2f3d
00000140: dff3 723c 73c2 4dbc 8d7c 183c 1d81 06bd
00000150: bf0f 03bd fe84 ecbc 8ebf f1bc 2e8d 123d
00000160: d2bd 8d3b 9013 593d c686 81bc 9616 1c3d
00000170: 2a3c cd3c dc63 693c 2571 ea39 e285 16bc
00000180: 67a4 093d 1b6f 813c 44fb 983c d9db bfbc
00000190: 46c8 ac3c bcad 383d 6909 403d 6102 d6bc
000001a0: 1f4a e7bc 68c7 653d ab0f 51bc fb23 bfbc
000001b0: 113b d4bc 79b5 1fbd 6437 4e3c de94 e73c
000001c0: b0aa b4bc a405 33bb 580d 3ebd d98e bd3b
000001d0: ea24 9cbc f304 04bd df50 af3c 0ad7 bbbc
000001e0: 1f4b 3b3d a6a6 a3bc bf74 c43c c02f 2bbd
000001f0: e9e7 af3c 7cf2 123d 5281 a93c 5913 b739
00000200: b23c 79bc be8c e93a 21b1 c1bc 3c90 313d
00000210: 3306 cebc fd5c 1bbd 8e5f 33bd c31f 453d
00000220: 605c b2bc 8dc3 1fbd 0b78 3e3d 7a54 303c
00000230: 7c84 5b3d 245f 8dbc 5da7 fcbc 3076 393d
00000240: 192a ed3b 9397 3ebd 40dc 243d a753 813c
00000250: d421 24bd 740f c1bc 9efe 9ebc a255 1b3d
00000260: 0c25 1e3d c2f3 b9bc 5656 e9bb 6cc9 a63c
00000270: 4d8a c4bc acdd f3b7 27e5 fbbc 1c3b d7bc
00000280: 867e a83c 28d5 8d3c 35aa debc 9242 0c3d
00000290: 556f 2cbb c29f 3f3c 6d2d 85bc fd94 bcba
000002a0: 9ce9 03bd a66b 653b 635e c03c cd56 123d
000002b0: 7abe 10bd 0bb7 eebb a262 49bc bb27 e4bb
000002c0: 2d36 62bc e553 443b dbfb 16bd 2cc0 893d
000002d0: 0845 e73c 63f9 13bd 14b9 15bd 8c24 6d3c
000002e0: 5681 1c3c 8dbf d2bc de8f 753c 01b9 093d
000002f0: 6d2a 493d 8d46 b0bc 702d 13bd b198 e0bc
00000300: ac23 593c 30b8 213b 4723 f0bc bf45 c4bc
00000310: aab8 12bd b418 143d 3e61 783c 083a 473d
00000320: 18ec e0bc 7740 a83b a5b3 223d 619e 98bc
00000330: 79ca a3ba 4f9c adbc 4437 263d b36d a3bb
00000340: 2799 8a3b 42fa 44b8 125b 2fbd 1560 d03b
00000350: 937c 97bc a40c 0d3c 5c07 18bd 59f6 c4bb
00000360: 34c4 30bc 439e 7d3d 95af 31bc d693 a8bc
00000370: 1219 b33c fa55 613c 4203 bd3c f6bd 5a3d
00000380: 2fb8 163c fa37 8cbb bcea 773b 9dac acbc
00000390: ea1a d6bc 82e1 d93c 4708 c7bc 6d4f aebc
000003a0: 6fb7 be3c 2b42 9dbc c8e1 32bb c62c e73c
000003b0: 21d3 a43c 8bcf 653d 3df2 b9bc 2d5b 90bc
000003c0: f684 553d 179d 6d3c ef15 463c 31f7 c63b
000003d0: dd4f c0bb a523 a83c 92a4 0f3d e148 443d
000003e0: 5fa8 b33b 55e3 eebc 42c4 4ebc 0168 57bb
000003f0: d9f4 073d a230 d33c b5d4 4fbd 50fb 5c3d

fc3.bias f4 [64]
0.07864614 -0.009440704 0.10693029 0.03070886 0.018583132 -0.020469578 0.047993895 0.01523802
0.09671317 -0.008758202 -0.0065514846 0.058034956 0.10202531 0.010436036 0.020657303 0.024774628
0.0280309 -0.020812972 0.09860875 0.10613934 0.10942975 0.07529396 -0.03249582 0.09789089
0.04072949 -0.011695517 0.06419749 0.05908026 -0.023864457 0.07077693 0.09897428 0.021110628
0.0050050756 0.08334576 -0.03649131 0.06669253 -0.028237177 0.13412774 0.09357496 0.06347352
-0.053843617 0.035551522 -0.023462553 0.08183489 -0.0035705834 0.11492238 0.020919781 -0.033533636
0.053817477 -0.005236699 0.03856688 0.12803023 0.06453185 0.12812588 0.02974181 0.027034838
0.061322518 0.041143302 -0.05593014 0.08327968 0.018492436 -0.02977742 0.021964237 0.119519696
00000000: 3a11 a13d 2fad 1abc 45fe da3d 2691 fb3c
00000010: a73b 983c d1af a7bc 3f95 443d e3a8 793c
00000020: 8e11 c63d 907e 0fbc d6ad d6bb 10b6 6d3d
00000030: a5f2 d03d e8fb 2a3c 8139 a93c 29f4 ca3c
00000040: 0fa1 e53c f77f aabc 62f3 c93d 955f d93d
00000050: b41c e03d b833 9a3d 561a 05bd 057b c83d
00000060: f7d3 263d 8e9e 3fbc f979 833d 25fe 713d
00000070: 657f c3bc 7ff3 903d 07b3 ca3d 32f0 ac3c
00000080: 9e01 a43b 2fb1 aa3d e977 15bd 1896 883d
00000090: a751 e7bc c858 093e 3ba4 bf3d 68fe 813d
000000a0: 208b 5cbd 799e 113d 8a34 c0bc 0d99 a73d
000000b0: 7300 6abb 6d5c eb3d f65f ab3c 915a 09bd
000000c0: b76f 5c3d 9d98 abbb 4ef8 1d3d 5b1a 033e
000000d0: 4629 843d 6e33 033e 19a5 f33c 2a78 dd3c
000000e0: 522d 7b3d e185 283d 0117 65bd 898e aa3d
000000f0: 737d 973c c7ef f3bc 58ee b33c bec6 f43d

out.weight f4 [1, 64]
-0.073315926 0.02559492 -0.04545947 0.019008104 0.036736958 0.04624267 -0.084006555 0.09341428
-0.07774504 0.09335687 0.11099796 -0.046976287 -0.046154425 0.06976066 0.027668016 0.0423962
0.089080244 0.10789892 -0.060293578 -0.049167365 -0.038549006 -0.09003225 0.10222928 -0.070050344
-0.0038839064 0.055187285 -0.06767911 -0.09597443 0.08088159 -0.05511994 -0.05578832 0.11491977
0.07560123 -0.04917663 0.008373465 -0.08010542 0.011889934 -0.033585995 -0.050309144 -0.044769626
0.07818488 -0.045666534 0.07778591 -0.04992331 0.05900388 -0.048347734 0.021781132 0.11128045
-0.051508795 0.097798474 -0.0027218245 -0.033166446 -0.092207775 -0.035088174 0.06077919 -0.0032627177
-0.07166565 -0.046049632 0.009732108 -0.030218111 0.025921814 0.027214942 0.05351413 -0.090345256
00000000: a926 96bd 70ac d13c b633 3abd e2b6 9b3c
00000010: 7e79 163d f468 3d3d a10b acbd fc4f bf3d
00000020: cb38 9fbd e331 bf3d e652 e33d 356a 40bd
00000030: 6c0c 3dbd adde 8e3d 09a8 e23c a3a7 2d3d
00000040: b46f b63d 1cfa dc3d 66f6 76bd b863 49bd
00000050: 90e5 1dbd d462 b8bd 965d d13d 8e76 8fbd
00000060: 2389 7ebb 100c 623d 589b 8abd 3e8e c4bd
00000070: 3fa5 a53d 72c5 61bd 4b82 64bd 0e5b eb3d
00000080: d1d4 9a3d 6f6d 49bd dc30 093c 4f0e a4bd
00000090: ffcd 423c 7891 09bd f610 4ebd 5b60 37bd
000000a0: 651f a03d d50c 3bbd 384e 9f3d 627c 4cbd
000000b0: 0dae 713d 4608 46bd 586e b23c 01e7 e33d
000000c0: e3fa 52bd 914a c83d a360 32bb 8ad9 07bd
000000d0: 6ed7 bcbd 9eb8 0fbd 9af3 783d 52d3 55bb
000000e0: 71c5 92bd 8a9e 3cbd 6b73 1f3c f98b f7bc
000000f0: fc59 d43c dff1 de3c a231 5b3d ef06 b9bd
