best_meta.pt (torch, 290409 bytes, 7 tensors)

fc1.weight f4 [256, 54]
0	0x3def7bd1	0.11693538
1	0xbd4378e2	-0.047722705
2	0xbd69d798	-0.05709037
3	0xbb8b468d	-0.0042503537
4	0x3dee026d	0.116215564
5	0xbdb9d90d	-0.09074602
6	0x3d613123	0.0549785
7	0x3dd9a109	0.10626418
8	0x3d6ea57c	0.058263287
9	0xbdd2da2b	-0.102955185
10	0xbe174c2d	-0.14775153
11	0x3dd216bc	0.102582425
12	0xbd7c8029	-0.06164566
13	0x3e152646	0.14565381
14	0xbe2edc7e	-0.17076299
15	0xbd8d0423	-0.06885555
16	0x3cf218fd	0.029552931
17	0xbdbd871f	-0.09254288
18	0xbc4b44cb	-0.012406538
19	0x3bb09378	0.0053886734
20	0x3df3ea6d	0.119099475
21	0x3d0e785f	0.034782764
22	0xbe00fa53	-0.12595491
23	0x3d62f430	0.055408657
24	0x3cc1de73	0.023665642
25	0xbe26b849	-0.16281237
26	0xbda85a71	-0.08220375
27	0xbcdd5378	-0.02701734
28	0x3c3bc606	0.011460787
29	0x3d16f1e6	0.036851786
30	0x3dfa9694	0.12235752
31	0xbd96349c	-0.07334253
32	0x3daa92a4	0.08328751
33	0xbcbf3217	-0.023339314
34	0xbd0308c5	-0.031990785
35	0xbddaa708	-0.1067639
36	0xbd9e1369	-0.07718546
37	0x3c2bc0d3	0.010482985
38	0x3dd685bd	0.10474727
39	0xbd893c29	-0.06700928
40	0x3ca24eb1	0.019812914
41	0x3d196f75	0.03745981
42	0x3cc67720	0.024226725
43	0xbba3a5b8	-0.0049941204
44	0x3d6f66b1	0.058447544
45	0xbb74c8e2	-0.003735118
46	0x3bba2293	0.005680391
47	0xbce4d076	-0.027931433
48	0x3cf375ed	0.029719317
49	0x3db8fd2b	0.09032663
50	0xbdb54784	-0.08851531
51	0x3d45540b	0.048175853
52	0xbe18e9e5	-0.14932974
53	0xbdfe8be9	-0.124290295
54	0xbcf09463	-0.029367631
55	0xbc7dc61f	-0.01548913
56	0xbd826387	-0.063666396
57	0x3a39c21a	0.00070861133
58	0x3db79e11	0.08965696
59	0xbcbe68a4	-0.023243256
60	0x3d3f8de4	0.046766177
61	0xbc928980	-0.01788783
62	0xbcccfd27	-0.025023056
63	0x3d194f63	0.037429225
64	0xbd8b0e00	-0.0678978
65	0xbd833a79	-0.06407637
66	0x3d56fa87	0.052485015
67	0x3dee4591	0.116343625
68	0xbce9a259	-0.028519796
69	0x3bf69e4d	0.007526195
70	0x3d44b0e7	0.04802027
71	0x3cb6c61f	0.022311268
72	0xbd7163fa	-0.058933236
73	0x3dc1cda5	0.09463052
74	0xbdbbc98a	-0.091693
75	0x3c92dfa6	0.01792891
76	0xbbf18ec1	-0.007371754
77	0xbc8bd957	-0.01707141
78	0x3d96ba99	0.073598094
79	0x3c820efe	0.01587629
80	0x3c995616	0.018717807
81	0x3d622412	0.05521018
82	0xbde4db5f	-0.11174654
83	0xbdf7a176	-0.12091343
84	0xbc9f6bda	-0.019460607
85	0xbd50335c	-0.05083023
86	0x3c56b253	0.013104039
87	0x3d31d266	0.043413542
88	0xbc906a6f	-0.017628876
89	0x3d132193	0.03592069
90	0x3c0db672	0.008649455
91	0xbbb0c8cc	-0.0053950306
92	0xbdba2f93	-0.09091105
93	0xbc743af8	-0.014906637
94	0xbdd29d0c	-0.102838606
95	0x3c8b6636	0.017016511
96	0xbdb2d062	-0.08731152
97	0xbddc8cff	-0.1076908
98	0xbd4d8b36	-0.05018159
99	0x3e1b6c8a	0.15178123
100	0x3e0b7fac	0.13622922
101	0xbda94233	-0.082645796
102	0xbe235437	-0.15950094
103	0x3e006776	0.12539467
104	0xbe335c69	-0.1751572
105	0x3da2a31c	0.07941267
106	0x3e94c12f	0.29053637
107	0x3e425e3c	0.1898126
108	0xbcb0d6e3	-0.021586841
109	0x3c9d2cc2	0.019186381
110	0xbbe15a86	-0.0068772463
111	0xbd4fd2ff	-0.05073833
112	0x3cb36521	0.021898808
113	0xbd9ff7fe	-0.07810973
114	0xbdcd88c7	-0.10035854
115	0xbc81588b	-0.01578929
116	0xbde640e4	-0.11242846
117	0x3d6147d6	0.05500015
118	0xbacb6126	-0.0015516623
119	0xbd473cb4	-0.048641875
120	0x3d8e3bfa	0.06945033
121	0xbc86ebb8	-0.016469821
122	0xbde386e7	-0.11109715
123	0xbd5f094d	-0.05445223
124	0x3cb8ca36	0.02255736
125	0x3aeb419a	0.0017948628
126	0xbd7e492a	-0.062081493
127	0xbd4bcd74	-0.049756482
128	0x3cb76503	0.022387033
129	0xbd0179a1	-0.031610135
130	0xbce24f0d	-0.027625585
131	0xbdefa876	-0.11702053
132	0xbdc5f766	-0.09666328
133	0xbd68066e	-0.056646757
134	0x3ccb4454	0.024812855
135	0x3db84483	0.089974426
136	0xbdc68291	-0.09692872
137	0xbda4dcdd	-0.08049939
138	0x3e0e58fd	0.13901134
139	0xbd8da4db	-0.06916209
140	0x3c4d51c5	0.012531702
141	0xbe177296	-0.14789805
142	0x3b54c233	0.0032464385
143	0xbe0741d9	-0.13208713
144	0xbcb837f8	-0.022487625
145	0x3deb38fa	0.11485477
146	0xbd82381a	-0.06358357
147	0x3d54e01e	0.051971547
148	0xbd11abd4	-0.03556426
149	0x3d1d2d99	0.038373563
150	0x3c835a2f	0.016034214
151	0xbcface97	-0.030616088
152	0xbcb8a337	-0.022538764
153	0x3e3290f0	0.17438102
154	0x3dee084c	0.11622676
155	0xbb952bdf	-0.004552349
156	0x3dc2a4c8	0.09504086
157	0x3de978dd	0.11400006
158	0x3d9a35c1	0.07529784
159	0xbe7ed272	-0.24884966
160	0xbf987ccf	-1.1913089
161	0xbf20fe2c	-0.62887836
162	0x3d505232	0.050859638
163	0xbdb6cc63	-0.089257024
164	0xbded76f8	-0.11594957
165	0xbe403c9c	-0.1877312
166	0x3d710aff	0.058848377
167	0x3d285db0	0.041104972
168	0xbc26debe	-0.010184942
169	0x3da2bed8	0.07946557
170	0x3dc9e096	0.098572895
171	0x3dc19bf4	0.09453574
172	0xbca87abd	-0.020566339
173	0x3d8c943a	0.068642095
174	0x3c829051	0.015937956
175	0xbe1aed66	-0.15129623
176	0x3c96e273	0.018418526
177	0x3c773f2a	0.015090743
178	0x3e126a1a	0.14298287
179	0xbde4f3dc	-0.11179325
180	0xbd017421	-0.03160489
181	0xbc976085	-0.018478641
182	0xbe026afa	-0.12736121
183	0x3d82a991	0.063799985
184	0x3d27d308	0.04097274
185	0x3d0e0ec1	0.03468204
186	0x3db14974	0.08656588
187	0x3cc031bb	0.023461213
188	0xbd72bdb3	-0.059262943
189	0x3d859cc5	0.06524042
190	0xbd7904d5	-0.060795624
191	0x3db22260	0.08697963
192	0x3ddf5438	0.10904735
193	0xbd8ee388	-0.06976992
194	0xbbccf687	-0.0062549743
195	0x3dc52f79	0.09628195
196	0xbd9dc7ae	-0.077041015
197	0x3e055c82	0.1302357
198	0x3d126c0a	0.035747565
199	0xbda865ac	-0.08222517
200	0xbd89a298	-0.067204654
201	0xbd462fb2	-0.04838533
202	0xbd33e5b4	-0.043920234
203	0xbdef905b	-0.116974555
204	0x3da81b2b	0.08208307
205	0xbcd7aa3e	-0.026326295
206	0x3e211429	0.15730347
207	0xbda85d61	-0.082209356
208	0xbe54bcbf	-0.20775126
209	0xbd552e96	-0.05204638
210	0x3d072ef4	0.033003762
211	0x3b959d03	0.0045658364
212	0xbdbc38aa	-0.09190495
213	0xbe062d0b	-0.1310312
214	0xbed34eb7	-0.41270992
215	0xbddacfab	-0.10684141
216	0xbd8a2524	-0.06745365
217	0x3bec500f	0.007211692
218	0xbd1b38f6	-0.03789612
219	0x3d24200a	0.040069617
220	0xbd243bd9	-0.040096138
221	0x3ae3b123	0.0017371516
222	0x3ce6d496	0.02817754
223	0xbc6e300a	-0.014537821
224	0x3d81f67c	0.06345841
225	0x3d3a3776	0.045463048
226	0x3c9ea825	0.019367287
227	0xbd5cbdaa	-0.053891815
228	0xbbbd5c04	-0.0057787914
229	0xbd9b79ed	-0.07591615
230	0x3da3aab2	0.07991542
231	0x3cc502ee	0.024049249
232	0xbd27a67b	-0.040930253
233	0xbd02d7e7	-0.03194418
234	0xbc9edfd2	-0.019393835
235	0x3ccf060c	0.025271438
236	0x3ded0681	0.11573506
237	0x3db59e4b	0.088680826
238	0x3db64270	0.08899391
239	0x3d1f2e46	0.03886249
240	0x3d9945af	0.07483994
241	0x3c4a13a4	0.012333784
242	0x3defdce0	0.117120504
243	0xbcc27dc2	-0.023741607
244	0x3e18ceca	0.14922634
245	0x3b3afcc0	0.0028531998
246	0x3d679dc9	0.05654696
247	0x3dd61efa	0.10455127
248	0xb9e97246	-0.00044526363
249	0x3d4fb90f	0.050713595
250	0x3cbdaf80	0.023154974
251	0xbda08912	-0.07838644
252	0xbceaa629	-0.028643684
253	0xba28c47e	-0.0006437971
254	0xbb4ed772	-0.003156152
255	0x3cea2711	0.028583081

fc1.bias f4 [256]
0	0xbd5db7cc	-0.05413036
1	0xbe149caf	-0.14512895
2	0x3dedc1fb	0.116092645
3	0xbd1a9651	-0.03774101
4	0xbc1dddc6	-0.009635394
5	0x3dd48a80	0.10377979
6	0x3aae2715	0.0013286794
7	0x3ca4c0ff	0.020111559
8	0xbde4fbe4	-0.11180857
9	0x3bbad3f4	0.0057015363
10	0xbe15d392	-0.14631489
11	0xbd634f35	-0.05549546
12	0xbdbfbaf4	-0.0936183
13	0x3d99c1c4	0.07507661
14	0x3d8c1865	0.068405904
15	0x3dbe8496	0.093026325
16	0x3d820e88	0.06350428
17	0xbd9642e7	-0.07336979
18	0xbc9906ff	-0.018680094
19	0xbe2f1f12	-0.17101696
20	0xbdbf952a	-0.09354623
21	0xbdbdb66c	-0.0926331
22	0x3d12bada	0.035822727
23	0xbd4db2c8	-0.050219327
24	0x3d1c689b	0.038185697
25	0xbcd82f69	-0.026389794
26	0xbe18ff54	-0.1494115
27	0xbc45fc48	-0.012084074
28	0x3d3c7da8	0.046018273
29	0xbb9bfe2b	-0.004760524
30	0xbd7f0261	-0.062258128
31	0x3dd0e89d	0.102006175
32	0xbaf5cbde	-0.0018752774
33	0x3da80ac0	0.082051754
34	0xbcd40c0b	-0.025884649
35	0x3c97e007	0.018539442
36	0xbdac773d	-0.084211804
37	0xbca9bbb3	-0.020719385
38	0xbe1154c2	-0.14192489
39	0x3d51ce79	0.0512223
40	0xbb44edff	-0.0030049083
41	0xbdf7cdaf	-0.12099778
42	0x3d51f6b3	0.05126066
43	0xbda47ed4	-0.08032003
44	0xbc97b427	-0.01851852
45	0xbc6f4839	-0.014604622
46	0xbe1f47f0	-0.15554786
47	0x3d59010d	0.052979518
48	0xbddb3daf	-0.107051246
49	0xbda6289c	-0.081132144
50	0xbd8847f0	-0.06654346
51	0xbdbfec46	-0.093712375
52	0xbe0d38da	-0.13791218
53	0x3d0caa11	0.034341875
54	0xbb413cad	-0.0029485628
55	0xbcb3cccc	-0.02194824
56	0xbdf0eff8	-0.117645204
57	0x3d5196bf	0.051169153
58	0xbde24609	-0.110485144
59	0x3d716fc9	0.058944497
60	0xbc5d29a9	-0.013498702
61	0xbe051395	-0.12995751
62	0xbd8fcd2f	-0.070215575
63	0xbb49d293	-0.0030795678
64	0xbd81590a	-0.06315811
65	0xbd28e670	-0.041235387
66	0x3dca60e3	0.09881761
67	0xbd5bc294	-0.05365236
68	0x3d833e03	0.06408312
69	0x3d999b40	0.07500315
70	0xbde93e22	-0.11388804
71	0x3d94e8b2	0.072709456
72	0x3d8483c5	0.064704455
73	0xbe31e5a3	-0.17372756
74	0x3da150ef	0.07876765
75	0xbce9bec3	-0.028533345
76	0xbcafb717	-0.021449609
77	0xbd481440	-0.048847437
78	0xbd6511d4	-0.055925205
79	0x3d9a235c	0.075262755
80	0x3d6dbdf3	0.058042478
81	0xbd87f15f	-0.06637835
82	0xbde724a8	-0.112862885
83	0x3c459673	0.012059796
84	0x3d8acbc8	0.067771494
85	0x3d71db91	0.059047285
86	0x3d9973c2	0.07492782
87	0x3de823b9	0.113349386
88	0x3d6495f9	0.055807088
89	0xbda037e8	-0.07823163
90	0x3cfb87d5	0.030704418
91	0x3cdae6a9	0.026721315
92	0x3cdac856	0.026706856
93	0x3dbf28fd	0.0933399
94	0x3c5f9180	0.01364553
95	0xbdec9630	-0.115520835
96	0x3de84518	0.113413036
97	0xbdd46f7a	-0.10372825
98	0x3cdedd0b	0.02720501
99	0x3d7161e4	0.058931246
100	0xbcc05876	-0.023479681
101	0xbc943821	-0.01809317
102	0x3d5ffe66	0.054685973
103	0xbdd8ed48	-0.10592133
104	0x3dcd509d	0.100251414
105	0xbcfce73a	-0.030871976
106	0xbda4545c	-0.08023903
107	0x3df535c9	0.11973149
108	0xbdd361e0	-0.103214025
109	0x3c5e8134	0.013580609
110	0xbdf46ad7	-0.119344406
111	0xbc6d494e	-0.014482809
112	0xbd782366	-0.060580634
113	0xbe0e630d	-0.13904972
114	0xbe13ef70	-0.14446807
115	0x3d8f7877	0.07005399
116	0xbd4d98d8	-0.05019459
117	0x3e001e31	0.12511517
118	0x3d85b884	0.06529334
119	0x3cf9d337	0.030496223
120	0x3b1acfed	0.0023622469
121	0x3d64ce59	0.05586085
122	0xbd0938e0	-0.033501506
123	0x3b5c9e92	0.0033663851
124	0x3cdf1543	0.027231818
125	0xbced20b0	-0.02894625
126	0x3cdc671e	0.026904639
127	0x3d8f672e	0.07002102
128	0x3c467638	0.0121131465
129	0xbdd86e1d	-0.105678774
130	0xbdaeb0e7	-0.08529835
131	0x3dd817ca	0.105514124
132	0xbda39a65	-0.07988433
133	0x3ca3fd5f	0.020018278
134	0xbd7f3b2f	-0.0623123
135	0xbd92eafb	-0.07173725
136	0x3d305ce0	0.043057323
137	0xbe12b0c5	-0.14325245
138	0x3d387220	0.045030713
139	0x3d504668	0.050848395
140	0x3ce4768c	0.027888559
141	0x3dc7dad8	0.09758538
142	0x3de13d90	0.1099807
143	0xbe033c02	-0.1281586
144	0xbddbc290	-0.10730469
145	0xbd581b75	-0.05276056
146	0xbd5a1ee4	-0.053252116
147	0x3dab3281	0.08359242
148	0xbd951643	-0.07279637
149	0xbddcb845	-0.10777334
150	0x3d8790cc	0.06619415
151	0x3d4ac2ee	0.049502306
152	0xbd810e9c	-0.06301615
153	0xbddb0eaa	-0.10696156
154	0xbd830c23	-0.06398799
155	0x3cb6a3f3	0.022294974
156	0x3d9dfc1e	0.07714103
157	0xbc15e250	-0.009148195
158	0x3d5f594b	0.054528516
159	0xbdcda9b6	-0.100421354
160	0x3dbec308	0.09314543
161	0x3cacfceb	0.021116694
162	0x3d5f27be	0.05448126
163	0x3ddb57c6	0.10710101
164	0x3d6bc6e2	0.057562716
165	0xbdacfdb3	-0.08446827
166	0x3df728c6	0.12068324
167	0x3cfa4476	0.030550223
168	0x3cc31a48	0.023816243
169	0x3c87c773	0.016574597
170	0x3d9e3b74	0.077261835
171	0x3d010619	0.031499956
172	0xbdb074da	-0.08616038
173	0xbb875409	-0.004129891
174	0x3da28667	0.079357915
175	0x3d3815a6	0.04494252
176	0xbd70d271	-0.058794443
177	0x3dba2634	0.09089318
178	0x3dd0bde9	0.101924725
179	0xbdb3fafc	-0.08788106
180	0x3d7132e2	0.058886416
181	0xbd614a5d	-0.05500256
182	0xbda80408	-0.08203894
183	0x3c89d827	0.016826702
184	0xbda2e213	-0.079532765
185	0xbde8b3df	-0.11362433
186	0x3d2d631c	0.042330846
187	0x3df14af2	0.11781873
188	0x3c566b26	0.01308707
189	0xbde5b287	-0.11215692
190	0x3d5e41a9	0.054261837
191	0xbe068da0	-0.13139963
192	0xbd8baeb9	-0.06820435
193	0xbd8f1b78	-0.06987661
194	0xbd8f37ea	-0.06993087
195	0xbbf7a739	-0.0075577763
196	0x3c83aeb4	0.016074516
197	0x3dad9a2c	0.084766716
198	0xbd2ef09a	-0.042709924
199	0xbd426d2f	-0.047467407
200	0x3dbc41f4	0.09192267
201	0xbdcd9a7a	-0.1003923
202	0x3dcb863e	0.09937714
203	0xbe02f3e5	-0.12788351
204	0xbca0253b	-0.019549003
205	0x3c646029	0.013938942
206	0xbd0ccdba	-0.034375884
207	0x3d8f4cb3	0.06997051
208	0xba9ac08a	-0.0011806649
209	0xbd5b856c	-0.053594038
210	0xbd096f56	-0.033553444
211	0x3d95b2e9	0.07309515
212	0xbe273baa	-0.16331354
213	0x3daa02a9	0.08301289
214	0xbdb5fdf9	-0.08886332
215	0x3e031d13	0.1280406
216	0x3d93d864	0.072190076
217	0xbdbc9247	-0.09207588
218	0xbdb2b9cd	-0.08726845
219	0xbe0800e1	-0.13281585
220	0xbd863211	-0.06552518
221	0xbac5c6cd	-0.0015089154
222	0x3c361e7c	0.0111156665
223	0x3dabbae4	0.08385256
224	0x3d74ede4	0.059797183
225	0xbcae6c6e	-0.021291938
226	0xbe234f34	-0.15948182
227	0xbe1233a7	-0.14277516
228	0xbd056587	-0.032567527
229	0x3d60b6b8	0.054861754
230	0xbdb3d082	-0.08780004
231	0x3de41635	0.11137048
232	0xbe06220f	-0.1309893
233	0xbdb2345f	-0.08701395
234	0xbe049c57	-0.12950264
235	0x3da0846b	0.07837757
236	0x3d60df24	0.054900303
237	0x3d8f19c2	0.06987335
238	0xbe087d86	-0.13329133
239	0xbdeb012a	-0.114748314
240	0xbddb7207	-0.10715108
241	0xbd8e3be4	-0.06945017
242	0x3d178299	0.036989782
243	0x3d502691	0.05081803
244	0x3cf55cad	0.029951418
245	0x3d3084f2	0.043095537
246	0xbd72dbd8	-0.05929169
247	0x3de30ef3	0.11086836
248	0x3dcaaab4	0.0989584
249	0x3c72e5ce	0.0148252975
250	0x3def46c5	0.1168342
251	0x3c6d8fb8	0.014499597
252	0xbcaf61b4	-0.021408893
253	0x3deea43d	0.1165242
254	0xbda51c5e	-0.08062051
255	0x3dc8bb03	0.09801295

fc2.weight f4 [128, 256]
0	0xbd0633b8	-0.032764167
1	0xbbb3c6ec	-0.00548636
2	0xbd8c9316	-0.06863992
3	0xbdaf6063	-0.08563306
4	0x3c113091	0.008861677
5	0x3ce6335c	0.028100662
6	0xbd6f5466	-0.058430098
7	0xbd14ad43	-0.036298048
8	0x3d4e6a3c	0.05039428
9	0x3c3147e4	0.010820363
10	0xbc8b3240	-0.016991735
11	0x3d1aa0df	0.037751075
12	0xbda5a328	-0.0808776
13	0xbc48b825	-0.012250935
14	0xbde30a42	-0.11085941
15	0xbd89b930	-0.06724775
16	0xbafc002d	-0.0019226127
17	0xbd04e19b	-0.032441717
18	0x3cd5aeb9	0.02608429
19	0xbd72df45	-0.059294958
20	0xbd49c4c7	-0.049259927
21	0xbde52ac6	-0.11189799
22	0xbc9ec1e9	-0.019379573
23	0x3b197fcb	0.0023422118
24	0x3bb79d3b	0.00560346
25	0xbc18bc97	-0.009322307
26	0x3c447b74	0.011992324
27	0xbd708158	-0.0587171
28	0x3dc6ab56	0.097006485
29	0x3cdc7cd2	0.026914988
30	0xbd98d2e4	-0.07462099
31	0x3ca20dfa	0.019782055
32	0x3cc75c9c	0.024336152
33	0xbda8c785	-0.0824118
34	0xbd4c1b5e	-0.049830787
35	0xbd04b21b	-0.032396417
36	0xbc1a6dca	-0.00942559
37	0x3c90b757	0.017665548
38	0xbd27cd4b	-0.040967267
39	0xbd5a5035	-0.053299148
40	0xbd8e6368	-0.06952554
41	0xbd559589	-0.05214456
42	0xbdde6b54	-0.10860315
43	0xbdcccf96	-0.100005314
44	0xbcc5fee4	-0.024169393
45	0xbd3e1658	-0.046408027
46	0x3c5cc2bc	0.013474163
47	0xbce57f4c	-0.028014801
48	0x3b25afab	0.0025281708
49	0x3bec7a04	0.007216694
50	0x3cf83161	0.030296983
51	0xbbca507f	-0.0061741467
52	0xbca34f67	-0.019935323
53	0xbc30791a	-0.01077106
54	0xbd97251d	-0.07380126
55	0xbc72100e	-0.014774336
56	0x3b7e297b	0.0038782049
57	0x3cfff980	0.0312469
58	0x3c996e5e	0.018729385
59	0xbd7b9305	-0.061419506
60	0x3c675696	0.014119765
61	0xbd7fae9b	-0.062422376
62	0xbd20ea2f	-0.039285835
63	0xbd4dd0b3	-0.05024786
64	0x3cf75a48	0.030194417
65	0xbd92829b	-0.07153817
66	0x3cc15b20	0.023603022
67	0x3d471e72	0.04861302
68	0xbd73176e	-0.059348516
69	0x3cde4120	0.027130663
70	0xbdc5df7b	-0.09661766
71	0x3ac9fc17	0.0015410212
72	0xbd90c162	-0.07068135
73	0xbd72cb23	-0.059275758
74	0x3d00aba5	0.031413693
75	0xbd5fa5c9	-0.054601464
76	0xbac3cccf	-0.0014938357
77	0xbddddf33	-0.108335875
78	0xbd2352c8	-0.03987387
79	0xbdadef59	-0.084929176
80	0xbbcdac6a	-0.006276657
81	0xbbad4306	-0.005287531
82	0x3cd387c1	0.025821568
83	0xbb2e5418	-0.0026600417
84	0x3d5cad20	0.053876042
85	0xbd896505	-0.06708721
86	0x3c0670c1	0.008205594
87	0xbbbe9c24	-0.0058169533
88	0xbd996b84	-0.0749121
89	0x3cd0588b	0.025432846
90	0x3d1947a6	0.037421845
91	0xbd975541	-0.07389308
92	0xbb289ae5	-0.002572709
93	0x3d320c1d	0.043468583
94	0xbd66ab3a	-0.056315638
95	0x3b439b55	0.0029847224
96	0x3c5cb483	0.013470772
97	0x3d202488	0.03909734
98	0x3c0d72f8	0.008633368
99	0xbdb1f68b	-0.086896025
100	0xbcdf232a	-0.027238447
101	0x3b51e736	0.0032028682
102	0x3d8ec485	0.06971077
103	0xbcd1708b	-0.02556636
104	0xbd8a9ed1	-0.06768573
105	0xbd39b406	-0.0453377
106	0xbd86c3c4	-0.06580308
107	0xbccecd09	-0.025244253
108	0xbd8a2081	-0.06744481
109	0xbb8dd9cb	-0.0043289415
110	0x3c86095a	0.016361881
111	0xbda7b728	-0.08189231
112	0x3b05af9e	0.0020398865
113	0xbc21c4d1	-0.009873585
114	0x3c3b768b	0.011441837
115	0xbbcd2971	-0.0062610437
116	0x3c67fdd3	0.0141596375
117	0xbc8c85a3	-0.017153567
118	0xbb52937c	-0.0032131365
119	0xbd0885ea	-0.033330835
120	0xbca2d98c	-0.019879125
121	0x3d0d03dd	0.034427512
122	0xbd0b342f	-0.033985313
123	0xbc89af47	-0.016807212
124	0xbd5333e0	-0.051563144
125	0xbdb47dd4	-0.08813062
126	0x3c91c4be	0.01779401
127	0xbce623ea	-0.028093297
128	0xbd9b13f8	-0.07572168
129	0xb67348d2	-3.6252209e-06
130	0x3b80d6aa	0.00393184
131	0x3ca50bfb	0.020147314
132	0xbc4eaa04	-0.012613777
133	0xbdc3d24a	-0.09561594
134	0x3b5df6c2	0.0033869003
135	0x37dd369d	2.6370684e-05
136	0x3ce515aa	0.027964432
137	0x3d091a10	0.03347212
138	0x3ce5cfb6	0.028053146
139	0xbd1ade35	-0.03780957
140	0x3a39f455	0.0007093598
141	0x3ca541d3	0.020172989
142	0x3b64740a	0.0034859204
143	0xbdb181f4	-0.08667365
144	0xbda9561e	-0.08268379
145	0x3b9b8a45	0.0047467076
146	0xbcb82fef	-0.022483794
147	0xbcee2713	-0.029071366
148	0x3d18acbb	0.037274104
149	0x3d70b616	0.0587674
150	0xbccb3a4b	-0.02480807
151	0xbdaec409	-0.085334845
152	0x3cb01cca	0.021498103
153	0xbda0016a	-0.0781277
154	0x3d6a2936	0.057168208
155	0xbd78644b	-0.06064252
156	0xbc1f2d44	-0.009715382
157	0xbcbf57c2	-0.023357276
158	0x3d4e9f40	0.05044484
159	0x3cbfd95c	0.023419075
160	0x3c360cab	0.011111419
161	0xbd89d616	-0.06730287
162	0xbd6f7762	-0.05846346
163	0xbd596569	-0.053075228
164	0x3bf62c55	0.007512609
165	0x3b653970	0.0034976862
166	0x3b882ddb	0.004155857
167	0xbd730738	-0.059333056
168	0x3c46ca9d	0.012133268
169	0x3d2b1b0e	0.04177385
170	0x3b31000c	0.0027008085
171	0xbc948899	-0.018131541
172	0x3d67117b	0.056413155
173	0xbcf6db00	-0.030133724
174	0x3bb11bd0	0.005404927
175	0xbd8afb35	-0.06786195
176	0xbcd86754	-0.026416458
177	0xbd11eefd	-0.035628308
178	0xbd330622	-0.04370702
179	0xbdb8e1eb	-0.090274654
180	0xbd3bf099	-0.04588375
181	0xbd211063	-0.03932227
182	0xbd441d00	-0.04787922
183	0xbd57944f	-0.052631672
184	0xbd8b2d89	-0.067957945
185	0xbd72c7f3	-0.059272718
186	0xbc1b14d7	-0.009465418
187	0x3ce4c2e5	0.027924964
188	0xbb2ac210	-0.0026055612
189	0x3c72aae9	0.014811256
190	0xbd4ea1d6	-0.050447308
191	0x3a9a38ce	0.0011766197
192	0x3cf8bd83	0.030363804
193	0x3d5650c9	0.052323136
194	0x3a8be36c	0.0010672635
195	0x3cc8823f	0.024476169
196	0xbac9b653	-0.001538942
197	0xbd7d439a	-0.061832048
198	0x3cbb765c	0.022883587
199	0xbd63cfaa	-0.055617966
200	0x3cf29a0a	0.029614467
201	0xbd727a3b	-0.0591986
202	0xbcce9ecc	-0.025222205
203	0xbd6e8bad	-0.058238674
204	0x3baf31da	0.005346519
205	0xbcb617d6	-0.022228163
206	0x3c85db00	0.016339779
207	0x3cadbffb	0.021209707
208	0xba93b996	-0.0011270519
209	0x3ce30f9d	0.027717406
210	0xbbb097df	-0.005389198
211	0xbcb1c0b2	-0.02169833
212	0x3bc1b568	0.005911518
213	0xbd8995c6	-0.0671802
214	0xbcd62c65	-0.026144216
215	0x3c2ba1c0	0.010475576
216	0x3cf416fd	0.029796118
217	0xbd810b30	-0.06300962
218	0xbc9a83b0	-0.018861622
219	0x3c300be8	0.010745026
220	0x3d0aa74f	0.033850964
221	0x3c984432	0.018587206
222	0xbbeda047	-0.0072517726
223	0xbbf1441e	-0.0073628565
224	0x3d4d54ed	0.05012982
225	0xbd30f188	-0.043199092
226	0xbb416c9a	-0.0029514194
227	0x3d9f1fdf	0.07769751
228	0xbd3a3f43	-0.045470487
229	0xbd10d8a6	-0.035362862
230	0xbd60f6dc	-0.054922923
231	0xbd914237	-0.070927076
232	0x3da0b944	0.078478366
233	0x3c14dd64	0.009085987
234	0xbcc65060	-0.024208248
235	0x3cb57412	0.022150073
236	0xbcfe2433	-0.03102312
237	0xbd58af61	-0.05290163
238	0xbdcbdd2a	-0.09954293
239	0x3d15da7e	0.036585324
240	0xbd6918c8	-0.0569084
241	0x3d2b7dc1	0.041867975
242	0x3d1ad180	0.03779745
243	0xbb05cfbc	-0.0020418009
244	0xbdd5a8dd	-0.10432599
245	0xbc22e27d	-0.009941694
246	0xbd5a02cb	-0.05322532
247	0xbacb5c24	-0.0015515131
248	0xbd650c06	-0.05591967
249	0xbd779a98	-0.060450166
250	0xbcac4b5a	-0.021032024
251	0x3cb5557a	0.022135485
252	0xbd0ae71b	-0.033911806
253	0xbba6016c	-0.0050660875
254	0xbc92d73a	-0.017924894
255	0x3c9ee92b	0.019398293

fc2.bias f4 [128]
0	0x3ccc009b	0.024902632
1	0xbcdf7eea	-0.027282197
2	0xbcbda92e	-0.02315196
3	0x3cc4a452	0.024004135
4	0xbd7b0e2f	-0.061292823
5	0x3d68640f	0.05673605
6	0xbca43df3	-0.020049071
7	0xbd72e002	-0.05929566
8	0xbdfa7c1f	-0.122307055
9	0xbc01cf64	-0.007922981
10	0x3c2fbbf9	0.0107259685
11	0xbd8e5c3e	-0.069511876
12	0xbb7b778d	-0.0038370818
13	0xbd65a49b	-0.056065183
14	0x3c990100	0.018677235
15	0xbb585d31	-0.003301453
16	0xbd860922	-0.06544711
17	0xbd688c3d	-0.056774367
18	0xbb86276f	-0.0040940563
19	0xbd828e8a	-0.063748434
20	0xbd9e4e7d	-0.07729814
21	0xbc497997	-0.012297056
22	0x3d80fa1b	0.06297704
23	0xbd51868d	-0.05115371
24	0x3cdcf874	0.02697394
25	0x3c565608	0.013082035
26	0xbd350da8	-0.044202477
27	0xbd71f0f5	-0.059067685
28	0x3cb41586	0.02198292
29	0x3cd5e2ca	0.026109118
30	0x3da567d1	0.08076442
31	0xbd00be19	-0.03143129
32	0xbc0e78b5	-0.008695771
33	0xbd2fb934	-0.042901233
34	0xbd35c0f3	-0.044373464
35	0x3cceedb1	0.025259824
36	0xbd8c9880	-0.068650246
37	0xbc9100b0	-0.017700523
38	0xb9eca3c1	-0.00045135434
39	0xbc858a12	-0.016301189
40	0x3d7b3196	0.061326586
41	0xbd406d2f	-0.046979126
42	0x3c4a5069	0.012348273
43	0x3d0947bc	0.033515677
44	0xbc022da8	-0.007945456
45	0x3be9a8c6	0.007130715
46	0xbccdcbaa	-0.025121529
47	0x3c9bd448	0.019022122
48	0x3d4f1c0f	0.050563868
49	0x3b181d11	0.0023210684
50	0xbd9f3889	-0.07774455
51	0xbcc404b4	-0.023928024
52	0x3c90a80c	0.017658256
53	0x3d08ebad	0.033427883
54	0x3d0ac289	0.03387693
55	0xbc7b7bea	-0.015349368
56	0xbcf15351	-0.029458674
57	0xbd5b37f6	-0.053520165
58	0xbd590ebb	-0.052992564
59	0x3c5fe851	0.013666228
60	0x3ca1fb8f	0.019773273
61	0xb88cc1d7	-6.711826e-05
62	0xbc8f7f48	-0.017516747
63	0xbcfc2bfc	-0.030782692
64	0xbd0d10f5	-0.03444
65	0xbd74710f	-0.059678134
66	0x3cc4ccf1	0.024023505
67	0xbd99a389	-0.07501895
68	0xbd301a82	-0.04299403
69	0xbdd954c4	-0.10611871
70	0xbdbc0cf5	-0.09182159
71	0xbd62cebb	-0.055372935
72	0xbd2d0813	-0.04224403
73	0xbd94e3ca	-0.0727001
74	0xbc0dd2cb	-0.008656214
75	0x3d2cad6f	0.042157587
76	0xbcd543c7	-0.026033295
77	0x3c609cda	0.013709271
78	0xbd8ec03a	-0.06970258
79	0xbc8f1d12	-0.017469916
80	0x3cce5251	0.025185736
81	0xbd4781d3	-0.048707794
82	0xbc581c05	-0.013190274
83	0x3cf3c4eb	0.029756984
84	0x3be7abba	0.007070032
85	0x3c376e2f	0.011195703
86	0xbd7ea7de	-0.06217181
87	0x3d22003b	0.039551
88	0x3c0e9cc8	0.008704372
89	0xbca2dc3b	-0.019880405
90	0xbd6dbf4e	-0.05804377
91	0xbc864abb	-0.016393056
92	0xbd0a00c4	-0.033692136
93	0x3d0d2818	0.034462065
94	0x3d4511c3	0.048112642
95	0xbdad9ba1	-0.084769495
96	0xbd0b7dbf	-0.034055468
97	0xbd15e9be	-0.036599867
98	0xbd0f4400	-0.03497696
99	0xbd3b1fd5	-0.045684654
100	0x3c8f5887	0.017498268
101	0xbda164c6	-0.07880549
102	0x3c9c55e1	0.019083919
103	0x3cd70ee5	0.02625222
104	0xbd77981d	-0.0604478
105	0xbd91bbb1	-0.071158774
106	0xbd7d23e1	-0.061801795
107	0xbd10ad9e	-0.035321824
108	0xbce4fffb	-0.027954092
109	0x3c02502c	0.007953685
110	0x3c069a4e	0.0082155
111	0xbd2d3748	-0.04228905
112	0x3c8c91e4	0.01715941
113	0xbc8f3773	-0.017482495
114	0xbc683152	-0.014171915
115	0x3d880bf8	0.06642908
116	0xbd2ae9d1	-0.04172689
117	0x3ae8709e	0.0017733758
118	0x3d2d515e	0.042313926
119	0x3d1c5cc4	0.038174406
120	0xbc78fc80	-0.015196919
121	0x3cfa3c71	0.030546399
122	0xbcac629e	-0.021043118
123	0xbd8e61ce	-0.069522485
124	0xbd14d9ab	-0.036340397
125	0xbd9fbe1e	-0.07799934
126	0xbc83b1f4	-0.016076066
127	0xbdaa63a9	-0.0831979

fc3.weight f4 [64, 384]
0	0x3bf4d72e	0.0074719405
1	0x3ce5d9a5	0.028057883
2	0xbbfe53db	-0.007761461
3	0x3d11499d	0.035470594
4	0x3d5f6b41	0.054545645
5	0x3cf76c20	0.030202925
6	0x3c8b2ff1	0.016990634
7	0x3ce806e5	0.0283236
8	0xbb99426d	-0.004677108
9	0x3d139dad	0.036039043
10	0x3d3e0536	0.04639169
11	0x3ca00576	0.019533854
12	0xba18ec6b	-0.0005833569
13	0xbd1d58b8	-0.038414687
14	0x3ba953f9	0.005167481
15	0x3adde5c5	0.0016929439
16	0x3ca6ca0e	0.020360019
17	0x3d0172eb	0.031603735
18	0xbc2c5882	-0.010519149
19	0xbc78b773	-0.015180456
20	0x3ce6e175	0.028183678
21	0x3d48b6ca	0.049002446
22	0x3d25248b	0.040318053
23	0x3d73502c	0.05940263
24	0xbbe2fa95	-0.0069268444
25	0x3dacadaf	0.08431565
26	0x3d1aef31	0.037825767
27	0x3d52b2c4	0.051440015
28	0x3c6e6013	0.014549273
29	0x3d2cee09	0.042219196
30	0x3d408e47	0.047010686
31	0x3d7198a0	0.058983445
32	0x3d72ab8d	0.059245635
33	0x3d5f5012	0.05451972
34	0x3dbe19ca	0.092822626
35	0x3dbcf45f	0.092262976
36	0x3cb8f682	0.022578482
37	0x3cbd927d	0.02314114
38	0x3d33f7ec	0.04393761
39	0x3beca028	0.0072212406
40	0xbc2dd255	-0.010609229
41	0x3cbec41b	0.02328687
42	0xbb946df5	-0.0045297095
43	0x3dcaf35b	0.099096976
44	0x3c482716	0.01221635
45	0x3d7a9945	0.061181325
46	0x3d9ec4d8	0.07752389
47	0xbc7f7fd2	-0.01559444
48	0x3bbf71ce	0.005842424
49	0xbc772a84	-0.01508582
50	0x3cc9c898	0.024631783
51	0x3e0ea267	0.13929139
52	0x3ce35be3	0.027753776
53	0x3b4d3f36	0.0031318194
54	0x3d1bd3ea	0.038043894
55	0xbcac8b4d	-0.021062518
56	0x3cd2bbf6	0.025724392
57	0x3d10a176	0.03531023
58	0x3b973bf3	0.004615301
59	0x3d1c182c	0.03810899
60	0x3c8b723e	0.017022248
61	0xbc09a2c8	-0.0084006265
62	0x3d4aaecf	0.049483117
63	0x3cdc97a6	0.02692778
64	0x3c2f3022	0.010692628
65	0x3e121a38	0.14267814
66	0x3c3d5c35	0.011557628
67	0xbc966cc3	-0.018362409
68	0xbcf380d8	-0.029724523
69	0x39c0578a	0.00036686315
70	0xbd5f425e	-0.054506652
71	0x3d5766a3	0.052588116
72	0x3d42a8f3	0.047524404
73	0x3d567759	0.052359913
74	0x3d2f118e	0.04274135
75	0x3d3be1d0	0.04586965
76	0xbc9b5211	-0.01896003
77	0xbd825c26	-0.06365232
78	0xbca36444	-0.019945271
79	0xbd21d5c9	-0.039510522
80	0xbd080c41	-0.03321481
81	0xbc60231e	-0.013680248
82	0x3d1fc99d	0.039010633
83	0x3d091afe	0.033473007
84	0x3ca10a04	0.019658096
85	0xbc931a42	-0.017956857
86	0x3c86c890	0.016453058
87	0x3c99c12d	0.018768871
88	0xbc8f676f	-0.017505376
89	0x3da882b2	0.08228053
90	0x3d73d404	0.059528366
91	0x3d32794e	0.043572716
92	0xbd762648	-0.0600951
93	0x3d513a25	0.05108084
94	0x3d34090d	0.043953944
95	0xbd15d1ec	-0.03657715
96	0xbe4e12c2	-0.20124343
97	0xbd115125	-0.035477776
98	0x3be01a73	0.0068390905
99	0xbba299f5	-0.0049622008
100	0x3cd35bb2	0.02580056
101	0x3cbd0b87	0.023076786
102	0x3d27fac4	0.041010633
103	0x3c87a86c	0.016559802
104	0x3c9d7dc8	0.019225016
105	0x3dddb2af	0.10825097
106	0x3cf96404	0.030443199
107	0xbd12c883	-0.035835754
108	0x3da73127	0.08163672
109	0xbdafe7e1	-0.08589149
110	0xbc59181f	-0.01325038
111	0x3cebf223	0.028801983
112	0x3c7c38cc	0.015394401
113	0x3d689c19	0.05678949
114	0x3cb4deb7	0.022078855
115	0xbb51be82	-0.003200442
116	0x3def5dfd	0.11687849
117	0xbdcd722f	-0.100315444
118	0x3d25f6c3	0.040518533
119	0x3d9818cb	0.07426604
120	0x3c09fea7	0.00842253
121	0xba8b33af	-0.0010620261
122	0x3d9a1046	0.07522635
123	0xbc314195	-0.010818859
124	0x3dc3b3be	0.095557675
125	0xbd3b9e54	-0.04580529
126	0xbc2dc82e	-0.010606809
127	0xbced93bc	-0.02900111
128	0x3c8b9853	0.017040407
129	0x3c7b57a0	0.015340716
130	0x3e4b8289	0.19874014
131	0x3d18530f	0.037188586
132	0x3c761dd2	0.015021758
133	0x3ca4b974	0.020107962
134	0x3cafe4f9	0.021471487
135	0xbcd9a8e8	-0.026569799
136	0x3ccf4142	0.025299672
137	0xbc5e5883	-0.0135709075
138	0x3b722726	0.0036949604
139	0x3d8c3702	0.068464294
140	0x3cd53501	0.02602625
141	0x3c0366e2	0.008020135
142	0x3c5441ff	0.012955188
143	0xbd030274	-0.03198476
144	0xbb7469e8	-0.003729457
145	0x3d1bcb3d	0.03803562
146	0x3d2ca8a0	0.042153
147	0xbd1c11b0	-0.038102806
148	0xbd9de575	-0.07709781
149	0x3cd09b1c	0.025464587
150	0x3d5e10d6	0.054215275
151	0xbb9fab03	-0.004872681
152	0x3c3ed0ed	0.0116464915
153	0xbe1ce7db	-0.15322821
154	0xbd1366cb	-0.035986703
155	0xbc2957c0	-0.010335863
156	0xbd9aa449	-0.07550866
157	0xbda603a1	-0.08106161
158	0xbc5b708f	-0.013393535
159	0xbcfe3b8e	-0.031034257
160	0xbced7358	-0.028985664
161	0x3cf6f028	0.030143812
162	0xbc065c64	-0.008200739
163	0x3d11c1a5	0.035585064
164	0x3ca3221d	0.019913727
165	0x3df1c0ed	0.11804376
166	0x3d84b133	0.064791106
167	0x3c4af913	0.0123884855
168	0x3dd05e9c	0.10174295
169	0x3d35b1ad	0.044358898
170	0x3cbb6435	0.02287493
171	0x3b988d10	0.004655488
172	0x3d0ec0ca	0.034851827
173	0xbd62be39	-0.05535719
174	0xbd348e83	-0.044081222
175	0xbd3943ac	-0.045230553
176	0x3d1a4cd0	0.03767091
177	0xbcbc545e	-0.022989448
178	0x3c329345	0.01089937
179	0x3c91ccd9	0.017797874
180	0xbca85958	-0.020550415
181	0x3c45412d	0.012039465
182	0x3d23f49f	0.04002821
183	0xbcad0680	-0.021121264
184	0x3bce699e	0.0062992116
185	0xbd106e1c	-0.03526126
186	0xbde16cd5	-0.11007086
187	0xbcc05314	-0.023477115
188	0xbc5acb16	-0.0133540835
189	0x3c8ceb38	0.017202005
190	0x3ccbe007	0.024887098
191	0x3d194f52	0.03742916
192	0x3dbec4e6	0.09314899
193	0xbd64cbaf	-0.05585831
194	0x3c0ddbab	0.00865833
195	0xbd5d89d2	-0.054086514
196	0xbcbdfa06	-0.02319051
197	0xbc665c0c	-0.014060032
198	0xbce79a2c	-0.028271757
199	0x3d2470f1	0.04014677
200	0x3de9f237	0.11423152
201	0x3b804aa0	0.003915146
202	0x3cf62ad1	0.030049713
203	0xbd913173	-0.0708951
204	0xbd7107e7	-0.058845427
205	0x3cee2807	0.02907182
206	0x3d15efc5	0.036605615
207	0xbdd22c9b	-0.10262414
208	0x3d721a45	0.059107084
209	0x3d91cb0a	0.07118805
210	0xbcbbe1d5	-0.022934834
211	0xbd985db8	-0.074397504
212	0xbd5eb763	-0.05437411
213	0xbb4ed9c2	-0.00315629
214	0x3b9ba3aa	0.004749735
215	0x3db079e9	0.086170025
216	0x3cf2a0be	0.029617663
217	0xbd496c2d	-0.04917543
218	0xbd471149	-0.04860047
219	0x3d921f77	0.07134908
220	0x3d6b5145	0.05745055
221	0xbc9d0993	-0.019169604
222	0x3d2df268	0.042467505
223	0x3cdc0ff5	0.026863078
224	0x3d8bf8d1	0.06834567
225	0xbcb5d703	-0.022197252
226	0xbc84b8f6	-0.016201477
227	0x3d304913	0.04303844
228	0xbcd9d51f	-0.026590882
229	0x3d0b5857	0.034019794
230	0xbd9dfdf0	-0.0771445
231	0x3d390108	0.045167
232	0x3c17cf36	0.0092657115
233	0xbcecbec1	-0.028899552
234	0x3d392ef0	0.04521078
235	0x3caa2ee3	0.02077431
236	0x3c366486	0.011132365
237	0xbb8864a3	-0.0041623875
238	0x3d4f368a	0.050589122
239	0x3dad7509	0.08469588
240	0xbc9aa706	-0.018878471
241	0x3d3077f5	0.04308315
242	0xbc957be2	-0.018247548
243	0xbca56906	-0.02019168
244	0xbd54f562	-0.051991828
245	0x3da98191	0.08276666
246	0x3bbc5c91	0.0057483395
247	0x3bfcc73f	0.0077141817
248	0x3d90791c	0.0705435
249	0xbcc2cfc2	-0.023780707
250	0x3c89ccea	0.016821343
251	0x3e1d302b	0.15350406
252	0x3d77ca1a	0.060495473
253	0xbdde2f23	-0.10848834
254	0x3d676475	0.056492288
255	0xbd1839b2	-0.037164398

fc3.bias f4 [64]
0	0x3d780d01	0.060559276
1	0x3cadc411	0.021211656
2	0xbd5308c8	-0.051522046
3	0xbc998977	-0.018742306
4	0x3c0393a4	0.008030806
5	0xbd6e6d4d	-0.058209706
6	0x3da7e693	0.081982754
7	0xbcfc9b95	-0.030835906
8	0x3de9e649	0.114208765
9	0x3df98397	0.12183302
10	0x3d285c86	0.041103862
11	0x3cb749b8	0.022374019
12	0x3d1a3931	0.0376522
13	0x3d8d4eb3	0.06899776
14	0xbd932887	-0.07185464
15	0x3cc6890d	0.024235273
16	0xbd670609	-0.05640224
17	0x3d47443f	0.04864907
18	0x3d3c2782	0.045936115
19	0x3dfac173	0.12243929
20	0xbb36bc03	-0.002788306
21	0x3d3adfc2	0.04562355
22	0xbb25ee48	-0.0025319029
23	0xbd20e9f9	-0.039285634
24	0x3db58de0	0.08864951
25	0x3d7b001c	0.0612794
26	0x3d6daf40	0.05802846
27	0xbd4b3a3b	-0.04961608
28	0x3da78d8c	0.08181295
29	0xbd31bbab	-0.043391865
30	0xbbb12273	-0.005405718
31	0xbc57f82c	-0.013181727
32	0xbc0a5101	-0.008442164
33	0x3d5df843	0.05419184
34	0x3c5ee438	0.013604216
35	0x3db3be24	0.08776501
36	0xbb8f060c	-0.0043647345
37	0x3cd17874	0.025570132
38	0xbc6875f6	-0.01418828
39	0xbd1daf88	-0.038497478
40	0x3d142e09	0.036176715
41	0xbd50590f	-0.050866183
42	0x3d0d85f4	0.034551576
43	0x3cd15db4	0.025557376
44	0xbd2fce7e	-0.042921536
45	0x3e0275cc	0.12740248
46	0x3dcd19ff	0.10014724
47	0xbd395741	-0.045249227
48	0x3de0ab9b	0.10970231
49	0x3c434102	0.011917355
50	0xbcb1f5c0	-0.021723628
51	0x3d955701	0.07291985
52	0x3d0540e5	0.03253259
53	0x3d0506ea	0.032477297
54	0x3da72c9b	0.08162805
55	0x3b38b5b0	0.0028184466
56	0x3c4c8993	0.012483972
57	0x3da3cd99	0.07998199
58	0xbcd21217	-0.025643392
59	0xbd67379c	-0.056449518
60	0x3dfba472	0.12287225
61	0x3cbe667a	0.023242224
62	0x3dad4fbe	0.08462475
63	0x3d92ae92	0.07162203

out.weight f4 [1, 64]
0	0xbd1d558c	-0.038411662
1	0x3b2978ca	0.002585935
2	0x3db79e7e	0.08965777
3	0x3e49d715	0.19710954
4	0x3d852434	0.06501046
5	0x3ddb5631	0.10709799
6	0xbd8eb5dc	-0.06968281
7	0x3d31c37d	0.043399323
8	0xbd417fa4	-0.04724087
9	0xbd2978a7	-0.04137483
10	0xbd2ddaf2	-0.04244513
11	0xbd9a4f61	-0.075346716
12	0x3c9b3796	0.018947404
13	0xbd98ac1d	-0.07454703
14	0x3ded713a	0.11593862
15	0x3d812a1e	0.06306861
16	0x3c4ebfdd	0.012618986
17	0xbd1fe329	-0.039034996
18	0xbe002b28	-0.12516463
19	0xbd404fc5	-0.046951074
20	0x3c89fc20	0.016843855
21	0xbd8d3ff4	-0.06896964
22	0x3d67cf4a	0.05659417
23	0x3dc63e50	0.09679854
24	0xbd74783d	-0.05968498
25	0xbd2902e1	-0.04126251
26	0xbd93656d	-0.0719708
27	0x3d1ba622	0.038000233
28	0xbd4ab8d8	-0.049492687
29	0x3e0573d5	0.13032468
30	0x3da40b02	0.08009912
31	0x3dc7867e	0.09742449
32	0x3d3e9b56	0.04653486
33	0x3d5c8edc	0.05384718
34	0x3d8c611c	0.0685446
35	0xbd30defc	-0.043181404
36	0x3d6931be	0.056932203
37	0xbdba1e6e	-0.09087835
38	0x3da3d790	0.080001
39	0x3d8caf65	0.06869391
40	0xbd7ee9f3	-0.06223483
41	0x3dca6048	0.098816454
42	0x3d5efbae	0.05443924
43	0x3d7d0b32	0.061778255
44	0x3cb2aad8	0.02180998
45	0xbd1dd83a	-0.038536288
46	0xbd283586	-0.04106667
47	0x3e3b02e7	0.18262826
48	0xbd917a39	-0.0710339
49	0x3da609c9	0.08107335
50	0x3db37ef5	0.087644495
51	0xbd29f7a7	-0.041495945
52	0x3dc5f344	0.0966554
53	0xbdce87ac	-0.10084471
54	0xbd8f1378	-0.06986135
55	0x3c83d4ad	0.016092623
56	0xbdace51e	-0.08442138
57	0xbdb035f6	-0.08604042
58	0x3d9f2633	0.07770958
59	0x3dc2f89f	0.09520077
60	0xbd4f4789	-0.05060533
61	0xbd96eeeb	-0.07369789
62	0xbda2d908	-0.07951552
63	0xbd982267	-0.07428437
